…
24-03-04 17:54:06.422 - INFO: Number of test images in [Set14]: 14
24-03-04 17:54:06.422 - INFO: Dataset [LQGTDataset - B100] is created.
24-03-04 17:54:06.422 - INFO: Number of test images in [B100]: 100
24-03-04 17:54:06.423 - INFO: Dataset [LQGTDataset - Urban100] is created.
24-03-04 17:54:06.423 - INFO: Number of test images in [Urban100]: 100
24-03-04 17:54:06.424 - INFO: Dataset [LQGTDataset - Manga109] is created.
24-03-04 17:54:06.424 - INFO: Number of test images in [Manga109]: 109
24-03-04 17:54:09.234 - INFO: Network G structure: DataParallel - EPAN, with parameters: 296,803
24-03-04 17:54:09.235 - INFO: EPAN(
  (conv_first): Conv2d(3, 40, kernel_size=(3, 3), stride=(1, 1), padding=(1, 1))
  (SCPA_trunk): Sequential(
    (0): ESCPA(
      (conv1_a): Conv2d(40, 20, kernel_size=(1, 1), stride=(1, 1), bias=False)
      (conv1_b): Conv2d(40, 20, kernel_size=(1, 1), stride=(1, 1), bias=False)
      (k1): Conv2d(20, 20, kernel_size=(3, 3), stride=(1, 1), padding=(1, 1))
      (FDB): FDB(
        (fdu1): FeatureDistillationUnit(
          (conv0): Conv2d(5, 5, kernel_size=(1, 1), stride=(1, 1))
          (conv1): Conv2d(15, 20, kernel_size=(1, 1), stride=(1, 1))
          (epa): EPA(
            (convPath1): Conv2d(10, 10, kernel_size=(1, 1), stride=(1, 1))
            (convPath2): Conv2d(10, 10, kernel_size=(1, 1), stride=(1, 1))
            (sigmoid): Sigmoid()
            (depthwise_conv1): DepthwiseConv2d(
              (depthwise_conv): Conv2d(10, 10, kernel_size=(3, 3), stride=(1, 1), padding=(1, 1), groups=10)
            )
            (depthwise_conv2): DepthwiseConv2d(
              (depthwise_conv): Conv2d(10, 10, kernel_size=(3, 3), stride=(1, 1), padding=(1, 1), groups=10)
            )
            (depthwise_conv3): DepthwiseConv2d(
              (depthwise_conv): Conv2d(10, 10, kernel_size=(3, 3), stride=(1, 1), padding=(1, 1), groups=10)
            )
            (depthwise_conv5): DepthwiseConv2d(
              (depthwise_conv): Conv2d(20, 20, kernel_size=(3, 3), stride=(1, 1), padding=(1, 1), groups=20)
            )
            (conv1x1): Conv2d(20, 20, kernel_size=(1, 1), stride=(1, 1))
          )
          (lrelu): LeakyReLU(negative_slope=0.2, inplace=True)
        )
        (fdu2): FeatureDistillationUnit(
          (conv0): Conv2d(5, 5, kernel_size=(1, 1), stride=(1, 1))
          (conv1): Conv2d(15, 20, kernel_size=(1, 1), stride=(1, 1))
          (epa): EPA(
            (convPath1): Conv2d(10, 10, kernel_size=(1, 1), stride=(1, 1))
            (convPath2): Conv2d(10, 10, kernel_size=(1, 1), stride=(1, 1))
            (sigmoid): Sigmoid()
            (depthwise_conv1): DepthwiseConv2d(
              (depthwise_conv): Conv2d(10, 10, kernel_size=(3, 3), stride=(1, 1), padding=(1, 1), groups=10)
            )
            (depthwise_conv2): DepthwiseConv2d(
              (depthwise_conv): Conv2d(10, 10, kernel_size=(3, 3), stride=(1, 1), padding=(1, 1), groups=10)
            )
            (depthwise_conv3): DepthwiseConv2d(
              (depthwise_conv): Conv2d(10, 10, kernel_size=(3, 3), stride=(1, 1), padding=(1, 1), groups=10)
            )
            (depthwise_conv5): DepthwiseConv2d(
              (depthwise_conv): Conv2d(20, 20, kernel_size=(3, 3), stride=(1, 1), padding=(1, 1), groups=20)
            )
            (conv1x1): Conv2d(20, 20, kernel_size=(1, 1), stride=(1, 1))
          )
          (lrelu): LeakyReLU(negative_slope=0.2, inplace=True)
        )
        (fdu3): FeatureDistillationUnit(
          (conv0): Conv2d(5, 5, kernel_size=(1, 1), stride=(1, 1))
          (conv1): Conv2d(15, 20, kernel_size=(1, 1), stride=(1, 1))
          (epa): EPA(
            (convPath1): Conv2d(10, 10, kernel_size=(1, 1), stride=(1, 1))
            (convPath2): Conv2d(10, 10, kernel_size=(1, 1), stride=(1, 1))
            (sigmoid): Sigmoid()
            (depthwise_conv1): DepthwiseConv2d(
              (depthwise_conv): Conv2d(10, 10, kernel_size=(3, 3), stride=(1, 1), padding=(1, 1), groups=10)
            )
            (depthwise_conv2): DepthwiseConv2d(
              (depthwise_conv): Conv2d(10, 10, kernel_size=(3, 3), stride=(1, 1), padding=(1, 1), groups=10)
            )
            (depthwise_conv3): DepthwiseConv2d(
              (depthwise_conv): Conv2d(10, 10, kernel_size=(3, 3), stride=(1, 1), padding=(1, 1), groups=10)
            )
            (depthwise_conv5): DepthwiseConv2d(
              (depthwise_conv): Conv2d(20, 20, kernel_size=(3, 3), stride=(1, 1), padding=(1, 1), groups=20)
            )
            (conv1x1): Conv2d(20, 20, kernel_size=(1, 1), stride=(1, 1))
          )
          (lrelu): LeakyReLU(negative_slope=0.2, inplace=True)
        )
        (cca): VarianceChannelAttention(
          (fc): Sequential(
            (0): Linear(in_features=20, out_features=5, bias=False)
            (1): ReLU(inplace=True)
            (2): Linear(in_features=5, out_features=20, bias=False)
          )
          (sigmoid): Sigmoid()
        )
        (fc1): Conv2d(35, 20, kernel_size=(1, 1), stride=(1, 1))
        (fc2): Conv2d(20, 20, kernel_size=(3, 3), stride=(1, 1), padding=(1, 1))
      )
      (conv3): Conv2d(40, 40, kernel_size=(1, 1), stride=(1, 1), bias=False)
      (lrelu): LeakyReLU(negative_slope=0.2, inplace=True)
    )
    (1): ESCPA(
      (conv1_a): Conv2d(40, 20, kernel_size=(1, 1), stride=(1, 1), bias=False)
      (conv1_b): Conv2d(40, 20, kernel_size=(1, 1), stride=(1, 1), bias=False)
      (k1): Conv2d(20, 20, kernel_size=(3, 3), stride=(1, 1), padding=(1, 1))
      (FDB): FDB(
        (fdu1): FeatureDistillationUnit(
          (conv0): Conv2d(5, 5, kernel_size=(1, 1), stride=(1, 1))
          (conv1): Conv2d(15, 20, kernel_size=(1, 1), stride=(1, 1))
          (epa): EPA(
            (convPath1): Conv2d(10, 10, kernel_size=(1, 1), stride=(1, 1))
            (convPath2): Conv2d(10, 10, kernel_size=(1, 1), stride=(1, 1))
            (sigmoid): Sigmoid()
            (depthwise_conv1): DepthwiseConv2d(
              (depthwise_conv): Conv2d(10, 10, kernel_size=(3, 3), stride=(1, 1), padding=(1, 1), groups=10)
            )
            (depthwise_conv2): DepthwiseConv2d(
              (depthwise_conv): Conv2d(10, 10, kernel_size=(3, 3), stride=(1, 1), padding=(1, 1), groups=10)
            )
            (depthwise_conv3): DepthwiseConv2d(
              (depthwise_conv): Conv2d(10, 10, kernel_size=(3, 3), stride=(1, 1), padding=(1, 1), groups=10)
            )
            (depthwise_conv5): DepthwiseConv2d(
              (depthwise_conv): Conv2d(20, 20, kernel_size=(3, 3), stride=(1, 1), padding=(1, 1), groups=20)
            )
            (conv1x1): Conv2d(20, 20, kernel_size=(1, 1), stride=(1, 1))
          )
          (lrelu): LeakyReLU(negative_slope=0.2, inplace=True)
        )
        (fdu2): FeatureDistillationUnit(
          (conv0): Conv2d(5, 5, kernel_size=(1, 1), stride=(1, 1))
          (conv1): Conv2d(15, 20, kernel_size=(1, 1), stride=(1, 1))
          (epa): EPA(
            (convPath1): Conv2d(10, 10, kernel_size=(1, 1), stride=(1, 1))
            (convPath2): Conv2d(10, 10, kernel_size=(1, 1), stride=(1, 1))
            (sigmoid): Sigmoid()
            (depthwise_conv1): DepthwiseConv2d(
              (depthwise_conv): Conv2d(10, 10, kernel_size=(3, 3), stride=(1, 1), padding=(1, 1), groups=10)
            )
            (depthwise_conv2): DepthwiseConv2d(
              (depthwise_conv): Conv2d(10, 10, kernel_size=(3, 3), stride=(1, 1), padding=(1, 1), groups=10)
            )
            (depthwise_conv3): DepthwiseConv2d(
              (depthwise_conv): Conv2d(10, 10, kernel_size=(3, 3), stride=(1, 1), padding=(1, 1), groups=10)
            )
            (depthwise_conv5): DepthwiseConv2d(
              (depthwise_conv): Conv2d(20, 20, kernel_size=(3, 3), stride=(1, 1), padding=(1, 1), groups=20)
            )
            (conv1x1): Conv2d(20, 20, kernel_size=(1, 1), stride=(1, 1))
          )
          (lrelu): LeakyReLU(negative_slope=0.2, inplace=True)
        )
        (fdu3): FeatureDistillationUnit(
          (conv0): Conv2d(5, 5, kernel_size=(1, 1), stride=(1, 1))
          (conv1): Conv2d(15, 20, kernel_size=(1, 1), stride=(1, 1))
          (epa): EPA(
            (convPath1): Conv2d(10, 10, kernel_size=(1, 1), stride=(1, 1))
            (convPath2): Conv2d(10, 10, kernel_size=(1, 1), stride=(1, 1))
            (sigmoid): Sigmoid()
            (depthwise_conv1): DepthwiseConv2d(
              (depthwise_conv): Conv2d(10, 10, kernel_size=(3, 3), stride=(1, 1), padding=(1, 1), groups=10)
            )
            (depthwise_conv2): DepthwiseConv2d(
              (depthwise_conv): Conv2d(10, 10, kernel_size=(3, 3), stride=(1, 1), padding=(1, 1), groups=10)
            )
            (depthwise_conv3): DepthwiseConv2d(
              (depthwise_conv): Conv2d(10, 10, kernel_size=(3, 3), stride=(1, 1), padding=(1, 1), groups=10)
            )
            (depthwise_conv5): DepthwiseConv2d(
              (depthwise_conv): Conv2d(20, 20, kernel_size=(3, 3), stride=(1, 1), padding=(1, 1), groups=20)
            )
            (conv1x1): Conv2d(20, 20, kernel_size=(1, 1), stride=(1, 1))
          )
          (lrelu): LeakyReLU(negative_slope=0.2, inplace=True)
        )
        (cca): VarianceChannelAttention(
          (fc): Sequential(
            (0): Linear(in_features=20, out_features=5, bias=False)
            (1): ReLU(inplace=True)
            (2): Linear(in_features=5, out_features=20, bias=False)
          )
          (sigmoid): Sigmoid()
        )
        (fc1): Conv2d(35, 20, kernel_size=(1, 1), stride=(1, 1))
        (fc2): Conv2d(20, 20, kernel_size=(3, 3), stride=(1, 1), padding=(1, 1))
      )
      (conv3): Conv2d(40, 40, kernel_size=(1, 1), stride=(1, 1), bias=False)
      (lrelu): LeakyReLU(negative_slope=0.2, inplace=True)
    )
    (2): ESCPA(
      (conv1_a): Conv2d(40, 20, kernel_size=(1, 1), stride=(1, 1), bias=False)
      (conv1_b): Conv2d(40, 20, kernel_size=(1, 1), stride=(1, 1), bias=False)
      (k1): Conv2d(20, 20, kernel_size=(3, 3), stride=(1, 1), padding=(1, 1))
      (FDB): FDB(
        (fdu1): FeatureDistillationUnit(
          (conv0): Conv2d(5, 5, kernel_size=(1, 1), stride=(1, 1))
          (conv1): Conv2d(15, 20, kernel_size=(1, 1), stride=(1, 1))
          (epa): EPA(
            (convPath1): Conv2d(10, 10, kernel_size=(1, 1), stride=(1, 1))
            (convPath2): Conv2d(10, 10, kernel_size=(1, 1), stride=(1, 1))
            (sigmoid): Sigmoid()
            (depthwise_conv1): DepthwiseConv2d(
              (depthwise_conv): Conv2d(10, 10, kernel_size=(3, 3), stride=(1, 1), padding=(1, 1), groups=10)
            )
            (depthwise_conv2): DepthwiseConv2d(
              (depthwise_conv): Conv2d(10, 10, kernel_size=(3, 3), stride=(1, 1), padding=(1, 1), groups=10)
            )
            (depthwise_conv3): DepthwiseConv2d(
              (depthwise_conv): Conv2d(10, 10, kernel_size=(3, 3), stride=(1, 1), padding=(1, 1), groups=10)
            )
            (depthwise_conv5): DepthwiseConv2d(
              (depthwise_conv): Conv2d(20, 20, kernel_size=(3, 3), stride=(1, 1), padding=(1, 1), groups=20)
            )
            (conv1x1): Conv2d(20, 20, kernel_size=(1, 1), stride=(1, 1))
          )
          (lrelu): LeakyReLU(negative_slope=0.2, inplace=True)
        )
        (fdu2): FeatureDistillationUnit(
          (conv0): Conv2d(5, 5, kernel_size=(1, 1), stride=(1, 1))
          (conv1): Conv2d(15, 20, kernel_size=(1, 1), stride=(1, 1))
          (epa): EPA(
            (convPath1): Conv2d(10, 10, kernel_size=(1, 1), stride=(1, 1))
            (convPath2): Conv2d(10, 10, kernel_size=(1, 1), stride=(1, 1))
            (sigmoid): Sigmoid()
            (depthwise_conv1): DepthwiseConv2d(
              (depthwise_conv): Conv2d(10, 10, kernel_size=(3, 3), stride=(1, 1), padding=(1, 1), groups=10)
            )
            (depthwise_conv2): DepthwiseConv2d(
              (depthwise_conv): Conv2d(10, 10, kernel_size=(3, 3), stride=(1, 1), padding=(1, 1), groups=10)
            )
            (depthwise_conv3): DepthwiseConv2d(
              (depthwise_conv): Conv2d(10, 10, kernel_size=(3, 3), stride=(1, 1), padding=(1, 1), groups=10)
            )
            (depthwise_conv5): DepthwiseConv2d(
              (depthwise_conv): Conv2d(20, 20, kernel_size=(3, 3), stride=(1, 1), padding=(1, 1), groups=20)
            )
            (conv1x1): Conv2d(20, 20, kernel_size=(1, 1), stride=(1, 1))
          )
          (lrelu): LeakyReLU(negative_slope=0.2, inplace=True)
        )
        (fdu3): FeatureDistillationUnit(
          (conv0): Conv2d(5, 5, kernel_size=(1, 1), stride=(1, 1))
          (conv1): Conv2d(15, 20, kernel_size=(1, 1), stride=(1, 1))
          (epa): EPA(
            (convPath1): Conv2d(10, 10, kernel_size=(1, 1), stride=(1, 1))
            (convPath2): Conv2d(10, 10, kernel_size=(1, 1), stride=(1, 1))
            (sigmoid): Sigmoid()
            (depthwise_conv1): DepthwiseConv2d(
              (depthwise_conv): Conv2d(10, 10, kernel_size=(3, 3), stride=(1, 1), padding=(1, 1), groups=10)
            )
            (depthwise_conv2): DepthwiseConv2d(
              (depthwise_conv): Conv2d(10, 10, kernel_size=(3, 3), stride=(1, 1), padding=(1, 1), groups=10)
            )
            (depthwise_conv3): DepthwiseConv2d(
              (depthwise_conv): Conv2d(10, 10, kernel_size=(3, 3), stride=(1, 1), padding=(1, 1), groups=10)
            )
            (depthwise_conv5): DepthwiseConv2d(
              (depthwise_conv): Conv2d(20, 20, kernel_size=(3, 3), stride=(1, 1), padding=(1, 1), groups=20)
            )
            (conv1x1): Conv2d(20, 20, kernel_size=(1, 1), stride=(1, 1))
          )
          (lrelu): LeakyReLU(negative_slope=0.2, inplace=True)
        )
        (cca): VarianceChannelAttention(
          (fc): Sequential(
            (0): Linear(in_features=20, out_features=5, bias=False)
            (1): ReLU(inplace=True)
            (2): Linear(in_features=5, out_features=20, bias=False)
          )
          (sigmoid): Sigmoid()
        )
        (fc1): Conv2d(35, 20, kernel_size=(1, 1), stride=(1, 1))
        (fc2): Conv2d(20, 20, kernel_size=(3, 3), stride=(1, 1), padding=(1, 1))
      )
      (conv3): Conv2d(40, 40, kernel_size=(1, 1), stride=(1, 1), bias=False)
      (lrelu): LeakyReLU(negative_slope=0.2, inplace=True)
    )
    (3): ESCPA(
      (conv1_a): Conv2d(40, 20, kernel_size=(1, 1), stride=(1, 1), bias=False)
      (conv1_b): Conv2d(40, 20, kernel_size=(1, 1), stride=(1, 1), bias=False)
      (k1): Conv2d(20, 20, kernel_size=(3, 3), stride=(1, 1), padding=(1, 1))
      (FDB): FDB(
        (fdu1): FeatureDistillationUnit(
          (conv0): Conv2d(5, 5, kernel_size=(1, 1), stride=(1, 1))
          (conv1): Conv2d(15, 20, kernel_size=(1, 1), stride=(1, 1))
          (epa): EPA(
            (convPath1): Conv2d(10, 10, kernel_size=(1, 1), stride=(1, 1))
            (convPath2): Conv2d(10, 10, kernel_size=(1, 1), stride=(1, 1))
            (sigmoid): Sigmoid()
            (depthwise_conv1): DepthwiseConv2d(
              (depthwise_conv): Conv2d(10, 10, kernel_size=(3, 3), stride=(1, 1), padding=(1, 1), groups=10)
            )
            (depthwise_conv2): DepthwiseConv2d(
              (depthwise_conv): Conv2d(10, 10, kernel_size=(3, 3), stride=(1, 1), padding=(1, 1), groups=10)
            )
            (depthwise_conv3): DepthwiseConv2d(
              (depthwise_conv): Conv2d(10, 10, kernel_size=(3, 3), stride=(1, 1), padding=(1, 1), groups=10)
            )
            (depthwise_conv5): DepthwiseConv2d(
              (depthwise_conv): Conv2d(20, 20, kernel_size=(3, 3), stride=(1, 1), padding=(1, 1), groups=20)
            )
            (conv1x1): Conv2d(20, 20, kernel_size=(1, 1), stride=(1, 1))
          )
          (lrelu): LeakyReLU(negative_slope=0.2, inplace=True)
        )
        (fdu2): FeatureDistillationUnit(
          (conv0): Conv2d(5, 5, kernel_size=(1, 1), stride=(1, 1))
          (conv1): Conv2d(15, 20, kernel_size=(1, 1), stride=(1, 1))
          (epa): EPA(
            (convPath1): Conv2d(10, 10, kernel_size=(1, 1), stride=(1, 1))
            (convPath2): Conv2d(10, 10, kernel_size=(1, 1), stride=(1, 1))
            (sigmoid): Sigmoid()
            (depthwise_conv1): DepthwiseConv2d(
              (depthwise_conv): Conv2d(10, 10, kernel_size=(3, 3), stride=(1, 1), padding=(1, 1), groups=10)
            )
            (depthwise_conv2): DepthwiseConv2d(
              (depthwise_conv): Conv2d(10, 10, kernel_size=(3, 3), stride=(1, 1), padding=(1, 1), groups=10)
            )
            (depthwise_conv3): DepthwiseConv2d(
              (depthwise_conv): Conv2d(10, 10, kernel_size=(3, 3), stride=(1, 1), padding=(1, 1), groups=10)
            )
            (depthwise_conv5): DepthwiseConv2d(
              (depthwise_conv): Conv2d(20, 20, kernel_size=(3, 3), stride=(1, 1), padding=(1, 1), groups=20)
            )
            (conv1x1): Conv2d(20, 20, kernel_size=(1, 1), stride=(1, 1))
          )
          (lrelu): LeakyReLU(negative_slope=0.2, inplace=True)
        )
        (fdu3): FeatureDistillationUnit(
          (conv0): Conv2d(5, 5, kernel_size=(1, 1), stride=(1, 1))
          (conv1): Conv2d(15, 20, kernel_size=(1, 1), stride=(1, 1))
          (epa): EPA(
            (convPath1): Conv2d(10, 10, kernel_size=(1, 1), stride=(1, 1))
            (convPath2): Conv2d(10, 10, kernel_size=(1, 1), stride=(1, 1))
            (sigmoid): Sigmoid()
            (depthwise_conv1): DepthwiseConv2d(
              (depthwise_conv): Conv2d(10, 10, kernel_size=(3, 3), stride=(1, 1), padding=(1, 1), groups=10)
            )
            (depthwise_conv2): DepthwiseConv2d(
              (depthwise_conv): Conv2d(10, 10, kernel_size=(3, 3), stride=(1, 1), padding=(1, 1), groups=10)
            )
            (depthwise_conv3): DepthwiseConv2d(
              (depthwise_conv): Conv2d(10, 10, kernel_size=(3, 3), stride=(1, 1), padding=(1, 1), groups=10)
            )
            (depthwise_conv5): DepthwiseConv2d(
              (depthwise_conv): Conv2d(20, 20, kernel_size=(3, 3), stride=(1, 1), padding=(1, 1), groups=20)
            )
            (conv1x1): Conv2d(20, 20, kernel_size=(1, 1), stride=(1, 1))
          )
          (lrelu): LeakyReLU(negative_slope=0.2, inplace=True)
        )
        (cca): VarianceChannelAttention(
          (fc): Sequential(
            (0): Linear(in_features=20, out_features=5, bias=False)
            (1): ReLU(inplace=True)
            (2): Linear(in_features=5, out_features=20, bias=False)
          )
          (sigmoid): Sigmoid()
        )
        (fc1): Conv2d(35, 20, kernel_size=(1, 1), stride=(1, 1))
        (fc2): Conv2d(20, 20, kernel_size=(3, 3), stride=(1, 1), padding=(1, 1))
      )
      (conv3): Conv2d(40, 40, kernel_size=(1, 1), stride=(1, 1), bias=False)
      (lrelu): LeakyReLU(negative_slope=0.2, inplace=True)
    )
    (4): ESCPA(
      (conv1_a): Conv2d(40, 20, kernel_size=(1, 1), stride=(1, 1), bias=False)
      (conv1_b): Conv2d(40, 20, kernel_size=(1, 1), stride=(1, 1), bias=False)
      (k1): Conv2d(20, 20, kernel_size=(3, 3), stride=(1, 1), padding=(1, 1))
      (FDB): FDB(
        (fdu1): FeatureDistillationUnit(
          (conv0): Conv2d(5, 5, kernel_size=(1, 1), stride=(1, 1))
          (conv1): Conv2d(15, 20, kernel_size=(1, 1), stride=(1, 1))
          (epa): EPA(
            (convPath1): Conv2d(10, 10, kernel_size=(1, 1), stride=(1, 1))
            (convPath2): Conv2d(10, 10, kernel_size=(1, 1), stride=(1, 1))
            (sigmoid): Sigmoid()
            (depthwise_conv1): DepthwiseConv2d(
              (depthwise_conv): Conv2d(10, 10, kernel_size=(3, 3), stride=(1, 1), padding=(1, 1), groups=10)
            )
            (depthwise_conv2): DepthwiseConv2d(
              (depthwise_conv): Conv2d(10, 10, kernel_size=(3, 3), stride=(1, 1), padding=(1, 1), groups=10)
            )
            (depthwise_conv3): DepthwiseConv2d(
              (depthwise_conv): Conv2d(10, 10, kernel_size=(3, 3), stride=(1, 1), padding=(1, 1), groups=10)
            )
            (depthwise_conv5): DepthwiseConv2d(
              (depthwise_conv): Conv2d(20, 20, kernel_size=(3, 3), stride=(1, 1), padding=(1, 1), groups=20)
            )
            (conv1x1): Conv2d(20, 20, kernel_size=(1, 1), stride=(1, 1))
          )
          (lrelu): LeakyReLU(negative_slope=0.2, inplace=True)
        )
        (fdu2): FeatureDistillationUnit(
          (conv0): Conv2d(5, 5, kernel_size=(1, 1), stride=(1, 1))
          (conv1): Conv2d(15, 20, kernel_size=(1, 1), stride=(1, 1))
          (epa): EPA(
            (convPath1): Conv2d(10, 10, kernel_size=(1, 1), stride=(1, 1))
            (convPath2): Conv2d(10, 10, kernel_size=(1, 1), stride=(1, 1))
            (sigmoid): Sigmoid()
            (depthwise_conv1): DepthwiseConv2d(
              (depthwise_conv): Conv2d(10, 10, kernel_size=(3, 3), stride=(1, 1), padding=(1, 1), groups=10)
            )
            (depthwise_conv2): DepthwiseConv2d(
              (depthwise_conv): Conv2d(10, 10, kernel_size=(3, 3), stride=(1, 1), padding=(1, 1), groups=10)
            )
            (depthwise_conv3): DepthwiseConv2d(
              (depthwise_conv): Conv2d(10, 10, kernel_size=(3, 3), stride=(1, 1), padding=(1, 1), groups=10)
            )
            (depthwise_conv5): DepthwiseConv2d(
              (depthwise_conv): Conv2d(20, 20, kernel_size=(3, 3), stride=(1, 1), padding=(1, 1), groups=20)
            )
            (conv1x1): Conv2d(20, 20, kernel_size=(1, 1), stride=(1, 1))
          )
          (lrelu): LeakyReLU(negative_slope=0.2, inplace=True)
        )
        (fdu3): FeatureDistillationUnit(
          (conv0): Conv2d(5, 5, kernel_size=(1, 1), stride=(1, 1))
          (conv1): Conv2d(15, 20, kernel_size=(1, 1), stride=(1, 1))
          (epa): EPA(
            (convPath1): Conv2d(10, 10, kernel_size=(1, 1), stride=(1, 1))
            (convPath2): Conv2d(10, 10, kernel_size=(1, 1), stride=(1, 1))
            (sigmoid): Sigmoid()
            (depthwise_conv1): DepthwiseConv2d(
              (depthwise_conv): Conv2d(10, 10, kernel_size=(3, 3), stride=(1, 1), padding=(1, 1), groups=10)
            )
            (depthwise_conv2): DepthwiseConv2d(
              (depthwise_conv): Conv2d(10, 10, kernel_size=(3, 3), stride=(1, 1), padding=(1, 1), groups=10)
            )
            (depthwise_conv3): DepthwiseConv2d(
              (depthwise_conv): Conv2d(10, 10, kernel_size=(3, 3), stride=(1, 1), padding=(1, 1), groups=10)
            )
            (depthwise_conv5): DepthwiseConv2d(
              (depthwise_conv): Conv2d(20, 20, kernel_size=(3, 3), stride=(1, 1), padding=(1, 1), groups=20)
            )
            (conv1x1): Conv2d(20, 20, kernel_size=(1, 1), stride=(1, 1))
          )
          (lrelu): LeakyReLU(negative_slope=0.2, inplace=True)
        )
        (cca): VarianceChannelAttention(
          (fc): Sequential(
            (0): Linear(in_features=20, out_features=5, bias=False)
            (1): ReLU(inplace=True)
            (2): Linear(in_features=5, out_features=20, bias=False)
          )
          (sigmoid): Sigmoid()
        )
        (fc1): Conv2d(35, 20, kernel_size=(1, 1), stride=(1, 1))
        (fc2): Conv2d(20, 20, kernel_size=(3, 3), stride=(1, 1), padding=(1, 1))
      )
      (conv3): Conv2d(40, 40, kernel_size=(1, 1), stride=(1, 1), bias=False)
      (lrelu): LeakyReLU(negative_slope=0.2, inplace=True)
    )
    (5): ESCPA(
      (conv1_a): Conv2d(40, 20, kernel_size=(1, 1), stride=(1, 1), bias=False)
      (conv1_b): Conv2d(40, 20, kernel_size=(1, 1), stride=(1, 1), bias=False)
      (k1): Conv2d(20, 20, kernel_size=(3, 3), stride=(1, 1), padding=(1, 1))
      (FDB): FDB(
        (fdu1): FeatureDistillationUnit(
          (conv0): Conv2d(5, 5, kernel_size=(1, 1), stride=(1, 1))
          (conv1): Conv2d(15, 20, kernel_size=(1, 1), stride=(1, 1))
          (epa): EPA(
            (convPath1): Conv2d(10, 10, kernel_size=(1, 1), stride=(1, 1))
            (convPath2): Conv2d(10, 10, kernel_size=(1, 1), stride=(1, 1))
            (sigmoid): Sigmoid()
            (depthwise_conv1): DepthwiseConv2d(
              (depthwise_conv): Conv2d(10, 10, kernel_size=(3, 3), stride=(1, 1), padding=(1, 1), groups=10)
            )
            (depthwise_conv2): DepthwiseConv2d(
              (depthwise_conv): Conv2d(10, 10, kernel_size=(3, 3), stride=(1, 1), padding=(1, 1), groups=10)
            )
            (depthwise_conv3): DepthwiseConv2d(
              (depthwise_conv): Conv2d(10, 10, kernel_size=(3, 3), stride=(1, 1), padding=(1, 1), groups=10)
            )
            (depthwise_conv5): DepthwiseConv2d(
              (depthwise_conv): Conv2d(20, 20, kernel_size=(3, 3), stride=(1, 1), padding=(1, 1), groups=20)
            )
            (conv1x1): Conv2d(20, 20, kernel_size=(1, 1), stride=(1, 1))
          )
          (lrelu): LeakyReLU(negative_slope=0.2, inplace=True)
        )
        (fdu2): FeatureDistillationUnit(
          (conv0): Conv2d(5, 5, kernel_size=(1, 1), stride=(1, 1))
          (conv1): Conv2d(15, 20, kernel_size=(1, 1), stride=(1, 1))
          (epa): EPA(
            (convPath1): Conv2d(10, 10, kernel_size=(1, 1), stride=(1, 1))
            (convPath2): Conv2d(10, 10, kernel_size=(1, 1), stride=(1, 1))
            (sigmoid): Sigmoid()
            (depthwise_conv1): DepthwiseConv2d(
              (depthwise_conv): Conv2d(10, 10, kernel_size=(3, 3), stride=(1, 1), padding=(1, 1), groups=10)
            )
            (depthwise_conv2): DepthwiseConv2d(
              (depthwise_conv): Conv2d(10, 10, kernel_size=(3, 3), stride=(1, 1), padding=(1, 1), groups=10)
            )
            (depthwise_conv3): DepthwiseConv2d(
              (depthwise_conv): Conv2d(10, 10, kernel_size=(3, 3), stride=(1, 1), padding=(1, 1), groups=10)
            )
            (depthwise_conv5): DepthwiseConv2d(
              (depthwise_conv): Conv2d(20, 20, kernel_size=(3, 3), stride=(1, 1), padding=(1, 1), groups=20)
            )
            (conv1x1): Conv2d(20, 20, kernel_size=(1, 1), stride=(1, 1))
          )
          (lrelu): LeakyReLU(negative_slope=0.2, inplace=True)
        )
        (fdu3): FeatureDistillationUnit(
          (conv0): Conv2d(5, 5, kernel_size=(1, 1), stride=(1, 1))
          (conv1): Conv2d(15, 20, kernel_size=(1, 1), stride=(1, 1))
          (epa): EPA(
            (convPath1): Conv2d(10, 10, kernel_size=(1, 1), stride=(1, 1))
            (convPath2): Conv2d(10, 10, kernel_size=(1, 1), stride=(1, 1))
            (sigmoid): Sigmoid()
            (depthwise_conv1): DepthwiseConv2d(
              (depthwise_conv): Conv2d(10, 10, kernel_size=(3, 3), stride=(1, 1), padding=(1, 1), groups=10)
            )
            (depthwise_conv2): DepthwiseConv2d(
              (depthwise_conv): Conv2d(10, 10, kernel_size=(3, 3), stride=(1, 1), padding=(1, 1), groups=10)
            )
            (depthwise_conv3): DepthwiseConv2d(
              (depthwise_conv): Conv2d(10, 10, kernel_size=(3, 3), stride=(1, 1), padding=(1, 1), groups=10)
            )
            (depthwise_conv5): DepthwiseConv2d(
              (depthwise_conv): Conv2d(20, 20, kernel_size=(3, 3), stride=(1, 1), padding=(1, 1), groups=20)
            )
            (conv1x1): Conv2d(20, 20, kernel_size=(1, 1), stride=(1, 1))
          )
          (lrelu): LeakyReLU(negative_slope=0.2, inplace=True)
        )
        (cca): VarianceChannelAttention(
          (fc): Sequential(
            (0): Linear(in_features=20, out_features=5, bias=False)
            (1): ReLU(inplace=True)
            (2): Linear(in_features=5, out_features=20, bias=False)
          )
          (sigmoid): Sigmoid()
        )
        (fc1): Conv2d(35, 20, kernel_size=(1, 1), stride=(1, 1))
        (fc2): Conv2d(20, 20, kernel_size=(3, 3), stride=(1, 1), padding=(1, 1))
      )
      (conv3): Conv2d(40, 40, kernel_size=(1, 1), stride=(1, 1), bias=False)
      (lrelu): LeakyReLU(negative_slope=0.2, inplace=True)
    )
    (6): ESCPA(
      (conv1_a): Conv2d(40, 20, kernel_size=(1, 1), stride=(1, 1), bias=False)
      (conv1_b): Conv2d(40, 20, kernel_size=(1, 1), stride=(1, 1), bias=False)
      (k1): Conv2d(20, 20, kernel_size=(3, 3), stride=(1, 1), padding=(1, 1))
      (FDB): FDB(
        (fdu1): FeatureDistillationUnit(
          (conv0): Conv2d(5, 5, kernel_size=(1, 1), stride=(1, 1))
          (conv1): Conv2d(15, 20, kernel_size=(1, 1), stride=(1, 1))
          (epa): EPA(
            (convPath1): Conv2d(10, 10, kernel_size=(1, 1), stride=(1, 1))
            (convPath2): Conv2d(10, 10, kernel_size=(1, 1), stride=(1, 1))
            (sigmoid): Sigmoid()
            (depthwise_conv1): DepthwiseConv2d(
              (depthwise_conv): Conv2d(10, 10, kernel_size=(3, 3), stride=(1, 1), padding=(1, 1), groups=10)
            )
            (depthwise_conv2): DepthwiseConv2d(
              (depthwise_conv): Conv2d(10, 10, kernel_size=(3, 3), stride=(1, 1), padding=(1, 1), groups=10)
            )
            (depthwise_conv3): DepthwiseConv2d(
              (depthwise_conv): Conv2d(10, 10, kernel_size=(3, 3), stride=(1, 1), padding=(1, 1), groups=10)
            )
            (depthwise_conv5): DepthwiseConv2d(
              (depthwise_conv): Conv2d(20, 20, kernel_size=(3, 3), stride=(1, 1), padding=(1, 1), groups=20)
            )
            (conv1x1): Conv2d(20, 20, kernel_size=(1, 1), stride=(1, 1))
          )
          (lrelu): LeakyReLU(negative_slope=0.2, inplace=True)
        )
        (fdu2): FeatureDistillationUnit(
          (conv0): Conv2d(5, 5, kernel_size=(1, 1), stride=(1, 1))
          (conv1): Conv2d(15, 20, kernel_size=(1, 1), stride=(1, 1))
          (epa): EPA(
            (convPath1): Conv2d(10, 10, kernel_size=(1, 1), stride=(1, 1))
            (convPath2): Conv2d(10, 10, kernel_size=(1, 1), stride=(1, 1))
            (sigmoid): Sigmoid()
            (depthwise_conv1): DepthwiseConv2d(
              (depthwise_conv): Conv2d(10, 10, kernel_size=(3, 3), stride=(1, 1), padding=(1, 1), groups=10)
            )
            (depthwise_conv2): DepthwiseConv2d(
              (depthwise_conv): Conv2d(10, 10, kernel_size=(3, 3), stride=(1, 1), padding=(1, 1), groups=10)
            )
            (depthwise_conv3): DepthwiseConv2d(
              (depthwise_conv): Conv2d(10, 10, kernel_size=(3, 3), stride=(1, 1), padding=(1, 1), groups=10)
            )
            (depthwise_conv5): DepthwiseConv2d(
              (depthwise_conv): Conv2d(20, 20, kernel_size=(3, 3), stride=(1, 1), padding=(1, 1), groups=20)
            )
            (conv1x1): Conv2d(20, 20, kernel_size=(1, 1), stride=(1, 1))
          )
          (lrelu): LeakyReLU(negative_slope=0.2, inplace=True)
        )
        (fdu3): FeatureDistillationUnit(
          (conv0): Conv2d(5, 5, kernel_size=(1, 1), stride=(1, 1))
          (conv1): Conv2d(15, 20, kernel_size=(1, 1), stride=(1, 1))
          (epa): EPA(
            (convPath1): Conv2d(10, 10, kernel_size=(1, 1), stride=(1, 1))
            (convPath2): Conv2d(10, 10, kernel_size=(1, 1), stride=(1, 1))
            (sigmoid): Sigmoid()
            (depthwise_conv1): DepthwiseConv2d(
              (depthwise_conv): Conv2d(10, 10, kernel_size=(3, 3), stride=(1, 1), padding=(1, 1), groups=10)
            )
            (depthwise_conv2): DepthwiseConv2d(
              (depthwise_conv): Conv2d(10, 10, kernel_size=(3, 3), stride=(1, 1), padding=(1, 1), groups=10)
            )
            (depthwise_conv3): DepthwiseConv2d(
              (depthwise_conv): Conv2d(10, 10, kernel_size=(3, 3), stride=(1, 1), padding=(1, 1), groups=10)
            )
            (depthwise_conv5): DepthwiseConv2d(
              (depthwise_conv): Conv2d(20, 20, kernel_size=(3, 3), stride=(1, 1), padding=(1, 1), groups=20)
            )
            (conv1x1): Conv2d(20, 20, kernel_size=(1, 1), stride=(1, 1))
          )
          (lrelu): LeakyReLU(negative_slope=0.2, inplace=True)
        )
        (cca): VarianceChannelAttention(
          (fc): Sequential(
            (0): Linear(in_features=20, out_features=5, bias=False)
            (1): ReLU(inplace=True)
            (2): Linear(in_features=5, out_features=20, bias=False)
          )
          (sigmoid): Sigmoid()
        )
        (fc1): Conv2d(35, 20, kernel_size=(1, 1), stride=(1, 1))
        (fc2): Conv2d(20, 20, kernel_size=(3, 3), stride=(1, 1), padding=(1, 1))
      )
      (conv3): Conv2d(40, 40, kernel_size=(1, 1), stride=(1, 1), bias=False)
      (lrelu): LeakyReLU(negative_slope=0.2, inplace=True)
    )
    (7): ESCPA(
      (conv1_a): Conv2d(40, 20, kernel_size=(1, 1), stride=(1, 1), bias=False)
      (conv1_b): Conv2d(40, 20, kernel_size=(1, 1), stride=(1, 1), bias=False)
      (k1): Conv2d(20, 20, kernel_size=(3, 3), stride=(1, 1), padding=(1, 1))
      (FDB): FDB(
        (fdu1): FeatureDistillationUnit(
          (conv0): Conv2d(5, 5, kernel_size=(1, 1), stride=(1, 1))
          (conv1): Conv2d(15, 20, kernel_size=(1, 1), stride=(1, 1))
          (epa): EPA(
            (convPath1): Conv2d(10, 10, kernel_size=(1, 1), stride=(1, 1))
            (convPath2): Conv2d(10, 10, kernel_size=(1, 1), stride=(1, 1))
            (sigmoid): Sigmoid()
            (depthwise_conv1): DepthwiseConv2d(
              (depthwise_conv): Conv2d(10, 10, kernel_size=(3, 3), stride=(1, 1), padding=(1, 1), groups=10)
            )
            (depthwise_conv2): DepthwiseConv2d(
              (depthwise_conv): Conv2d(10, 10, kernel_size=(3, 3), stride=(1, 1), padding=(1, 1), groups=10)
            )
            (depthwise_conv3): DepthwiseConv2d(
              (depthwise_conv): Conv2d(10, 10, kernel_size=(3, 3), stride=(1, 1), padding=(1, 1), groups=10)
            )
            (depthwise_conv5): DepthwiseConv2d(
              (depthwise_conv): Conv2d(20, 20, kernel_size=(3, 3), stride=(1, 1), padding=(1, 1), groups=20)
            )
            (conv1x1): Conv2d(20, 20, kernel_size=(1, 1), stride=(1, 1))
          )
          (lrelu): LeakyReLU(negative_slope=0.2, inplace=True)
        )
        (fdu2): FeatureDistillationUnit(
          (conv0): Conv2d(5, 5, kernel_size=(1, 1), stride=(1, 1))
          (conv1): Conv2d(15, 20, kernel_size=(1, 1), stride=(1, 1))
          (epa): EPA(
            (convPath1): Conv2d(10, 10, kernel_size=(1, 1), stride=(1, 1))
            (convPath2): Conv2d(10, 10, kernel_size=(1, 1), stride=(1, 1))
            (sigmoid): Sigmoid()
            (depthwise_conv1): DepthwiseConv2d(
              (depthwise_conv): Conv2d(10, 10, kernel_size=(3, 3), stride=(1, 1), padding=(1, 1), groups=10)
            )
            (depthwise_conv2): DepthwiseConv2d(
              (depthwise_conv): Conv2d(10, 10, kernel_size=(3, 3), stride=(1, 1), padding=(1, 1), groups=10)
            )
            (depthwise_conv3): DepthwiseConv2d(
              (depthwise_conv): Conv2d(10, 10, kernel_size=(3, 3), stride=(1, 1), padding=(1, 1), groups=10)
            )
            (depthwise_conv5): DepthwiseConv2d(
              (depthwise_conv): Conv2d(20, 20, kernel_size=(3, 3), stride=(1, 1), padding=(1, 1), groups=20)
            )
            (conv1x1): Conv2d(20, 20, kernel_size=(1, 1), stride=(1, 1))
          )
          (lrelu): LeakyReLU(negative_slope=0.2, inplace=True)
        )
        (fdu3): FeatureDistillationUnit(
          (conv0): Conv2d(5, 5, kernel_size=(1, 1), stride=(1, 1))
          (conv1): Conv2d(15, 20, kernel_size=(1, 1), stride=(1, 1))
          (epa): EPA(
            (convPath1): Conv2d(10, 10, kernel_size=(1, 1), stride=(1, 1))
            (convPath2): Conv2d(10, 10, kernel_size=(1, 1), stride=(1, 1))
            (sigmoid): Sigmoid()
            (depthwise_conv1): DepthwiseConv2d(
              (depthwise_conv): Conv2d(10, 10, kernel_size=(3, 3), stride=(1, 1), padding=(1, 1), groups=10)
            )
            (depthwise_conv2): DepthwiseConv2d(
              (depthwise_conv): Conv2d(10, 10, kernel_size=(3, 3), stride=(1, 1), padding=(1, 1), groups=10)
            )
            (depthwise_conv3): DepthwiseConv2d(
              (depthwise_conv): Conv2d(10, 10, kernel_size=(3, 3), stride=(1, 1), padding=(1, 1), groups=10)
            )
            (depthwise_conv5): DepthwiseConv2d(
              (depthwise_conv): Conv2d(20, 20, kernel_size=(3, 3), stride=(1, 1), padding=(1, 1), groups=20)
            )
            (conv1x1): Conv2d(20, 20, kernel_size=(1, 1), stride=(1, 1))
          )
          (lrelu): LeakyReLU(negative_slope=0.2, inplace=True)
        )
        (cca): VarianceChannelAttention(
          (fc): Sequential(
            (0): Linear(in_features=20, out_features=5, bias=False)
            (1): ReLU(inplace=True)
            (2): Linear(in_features=5, out_features=20, bias=False)
          )
          (sigmoid): Sigmoid()
        )
        (fc1): Conv2d(35, 20, kernel_size=(1, 1), stride=(1, 1))
        (fc2): Conv2d(20, 20, kernel_size=(3, 3), stride=(1, 1), padding=(1, 1))
      )
      (conv3): Conv2d(40, 40, kernel_size=(1, 1), stride=(1, 1), bias=False)
      (lrelu): LeakyReLU(negative_slope=0.2, inplace=True)
    )
    (8): ESCPA(
      (conv1_a): Conv2d(40, 20, kernel_size=(1, 1), stride=(1, 1), bias=False)
      (conv1_b): Conv2d(40, 20, kernel_size=(1, 1), stride=(1, 1), bias=False)
      (k1): Conv2d(20, 20, kernel_size=(3, 3), stride=(1, 1), padding=(1, 1))
      (FDB): FDB(
        (fdu1): FeatureDistillationUnit(
          (conv0): Conv2d(5, 5, kernel_size=(1, 1), stride=(1, 1))
          (conv1): Conv2d(15, 20, kernel_size=(1, 1), stride=(1, 1))
          (epa): EPA(
            (convPath1): Conv2d(10, 10, kernel_size=(1, 1), stride=(1, 1))
            (convPath2): Conv2d(10, 10, kernel_size=(1, 1), stride=(1, 1))
            (sigmoid): Sigmoid()
            (depthwise_conv1): DepthwiseConv2d(
              (depthwise_conv): Conv2d(10, 10, kernel_size=(3, 3), stride=(1, 1), padding=(1, 1), groups=10)
            )
            (depthwise_conv2): DepthwiseConv2d(
              (depthwise_conv): Conv2d(10, 10, kernel_size=(3, 3), stride=(1, 1), padding=(1, 1), groups=10)
            )
            (depthwise_conv3): DepthwiseConv2d(
              (depthwise_conv): Conv2d(10, 10, kernel_size=(3, 3), stride=(1, 1), padding=(1, 1), groups=10)
            )
            (depthwise_conv5): DepthwiseConv2d(
              (depthwise_conv): Conv2d(20, 20, kernel_size=(3, 3), stride=(1, 1), padding=(1, 1), groups=20)
            )
            (conv1x1): Conv2d(20, 20, kernel_size=(1, 1), stride=(1, 1))
          )
          (lrelu): LeakyReLU(negative_slope=0.2, inplace=True)
        )
        (fdu2): FeatureDistillationUnit(
          (conv0): Conv2d(5, 5, kernel_size=(1, 1), stride=(1, 1))
          (conv1): Conv2d(15, 20, kernel_size=(1, 1), stride=(1, 1))
          (epa): EPA(
            (convPath1): Conv2d(10, 10, kernel_size=(1, 1), stride=(1, 1))
            (convPath2): Conv2d(10, 10, kernel_size=(1, 1), stride=(1, 1))
            (sigmoid): Sigmoid()
            (depthwise_conv1): DepthwiseConv2d(
              (depthwise_conv): Conv2d(10, 10, kernel_size=(3, 3), stride=(1, 1), padding=(1, 1), groups=10)
            )
            (depthwise_conv2): DepthwiseConv2d(
              (depthwise_conv): Conv2d(10, 10, kernel_size=(3, 3), stride=(1, 1), padding=(1, 1), groups=10)
            )
            (depthwise_conv3): DepthwiseConv2d(
              (depthwise_conv): Conv2d(10, 10, kernel_size=(3, 3), stride=(1, 1), padding=(1, 1), groups=10)
            )
            (depthwise_conv5): DepthwiseConv2d(
              (depthwise_conv): Conv2d(20, 20, kernel_size=(3, 3), stride=(1, 1), padding=(1, 1), groups=20)
            )
            (conv1x1): Conv2d(20, 20, kernel_size=(1, 1), stride=(1, 1))
          )
          (lrelu): LeakyReLU(negative_slope=0.2, inplace=True)
        )
        (fdu3): FeatureDistillationUnit(
          (conv0): Conv2d(5, 5, kernel_size=(1, 1), stride=(1, 1))
          (conv1): Conv2d(15, 20, kernel_size=(1, 1), stride=(1, 1))
          (epa): EPA(
            (convPath1): Conv2d(10, 10, kernel_size=(1, 1), stride=(1, 1))
            (convPath2): Conv2d(10, 10, kernel_size=(1, 1), stride=(1, 1))
            (sigmoid): Sigmoid()
            (depthwise_conv1): DepthwiseConv2d(
              (depthwise_conv): Conv2d(10, 10, kernel_size=(3, 3), stride=(1, 1), padding=(1, 1), groups=10)
            )
            (depthwise_conv2): DepthwiseConv2d(
              (depthwise_conv): Conv2d(10, 10, kernel_size=(3, 3), stride=(1, 1), padding=(1, 1), groups=10)
            )
            (depthwise_conv3): DepthwiseConv2d(
              (depthwise_conv): Conv2d(10, 10, kernel_size=(3, 3), stride=(1, 1), padding=(1, 1), groups=10)
            )
            (depthwise_conv5): DepthwiseConv2d(
              (depthwise_conv): Conv2d(20, 20, kernel_size=(3, 3), stride=(1, 1), padding=(1, 1), groups=20)
            )
            (conv1x1): Conv2d(20, 20, kernel_size=(1, 1), stride=(1, 1))
          )
          (lrelu): LeakyReLU(negative_slope=0.2, inplace=True)
        )
        (cca): VarianceChannelAttention(
          (fc): Sequential(
            (0): Linear(in_features=20, out_features=5, bias=False)
            (1): ReLU(inplace=True)
            (2): Linear(in_features=5, out_features=20, bias=False)
          )
          (sigmoid): Sigmoid()
        )
        (fc1): Conv2d(35, 20, kernel_size=(1, 1), stride=(1, 1))
        (fc2): Conv2d(20, 20, kernel_size=(3, 3), stride=(1, 1), padding=(1, 1))
      )
      (conv3): Conv2d(40, 40, kernel_size=(1, 1), stride=(1, 1), bias=False)
      (lrelu): LeakyReLU(negative_slope=0.2, inplace=True)
    )
    (9): ESCPA(
      (conv1_a): Conv2d(40, 20, kernel_size=(1, 1), stride=(1, 1), bias=False)
      (conv1_b): Conv2d(40, 20, kernel_size=(1, 1), stride=(1, 1), bias=False)
      (k1): Conv2d(20, 20, kernel_size=(3, 3), stride=(1, 1), padding=(1, 1))
      (FDB): FDB(
        (fdu1): FeatureDistillationUnit(
          (conv0): Conv2d(5, 5, kernel_size=(1, 1), stride=(1, 1))
          (conv1): Conv2d(15, 20, kernel_size=(1, 1), stride=(1, 1))
          (epa): EPA(
            (convPath1): Conv2d(10, 10, kernel_size=(1, 1), stride=(1, 1))
            (convPath2): Conv2d(10, 10, kernel_size=(1, 1), stride=(1, 1))
            (sigmoid): Sigmoid()
            (depthwise_conv1): DepthwiseConv2d(
              (depthwise_conv): Conv2d(10, 10, kernel_size=(3, 3), stride=(1, 1), padding=(1, 1), groups=10)
            )
            (depthwise_conv2): DepthwiseConv2d(
              (depthwise_conv): Conv2d(10, 10, kernel_size=(3, 3), stride=(1, 1), padding=(1, 1), groups=10)
            )
            (depthwise_conv3): DepthwiseConv2d(
              (depthwise_conv): Conv2d(10, 10, kernel_size=(3, 3), stride=(1, 1), padding=(1, 1), groups=10)
            )
            (depthwise_conv5): DepthwiseConv2d(
              (depthwise_conv): Conv2d(20, 20, kernel_size=(3, 3), stride=(1, 1), padding=(1, 1), groups=20)
            )
            (conv1x1): Conv2d(20, 20, kernel_size=(1, 1), stride=(1, 1))
          )
          (lrelu): LeakyReLU(negative_slope=0.2, inplace=True)
        )
        (fdu2): FeatureDistillationUnit(
          (conv0): Conv2d(5, 5, kernel_size=(1, 1), stride=(1, 1))
          (conv1): Conv2d(15, 20, kernel_size=(1, 1), stride=(1, 1))
          (epa): EPA(
            (convPath1): Conv2d(10, 10, kernel_size=(1, 1), stride=(1, 1))
            (convPath2): Conv2d(10, 10, kernel_size=(1, 1), stride=(1, 1))
            (sigmoid): Sigmoid()
            (depthwise_conv1): DepthwiseConv2d(
              (depthwise_conv): Conv2d(10, 10, kernel_size=(3, 3), stride=(1, 1), padding=(1, 1), groups=10)
            )
            (depthwise_conv2): DepthwiseConv2d(
              (depthwise_conv): Conv2d(10, 10, kernel_size=(3, 3), stride=(1, 1), padding=(1, 1), groups=10)
            )
            (depthwise_conv3): DepthwiseConv2d(
              (depthwise_conv): Conv2d(10, 10, kernel_size=(3, 3), stride=(1, 1), padding=(1, 1), groups=10)
            )
            (depthwise_conv5): DepthwiseConv2d(
              (depthwise_conv): Conv2d(20, 20, kernel_size=(3, 3), stride=(1, 1), padding=(1, 1), groups=20)
            )
            (conv1x1): Conv2d(20, 20, kernel_size=(1, 1), stride=(1, 1))
          )
          (lrelu): LeakyReLU(negative_slope=0.2, inplace=True)
        )
        (fdu3): FeatureDistillationUnit(
          (conv0): Conv2d(5, 5, kernel_size=(1, 1), stride=(1, 1))
          (conv1): Conv2d(15, 20, kernel_size=(1, 1), stride=(1, 1))
          (epa): EPA(
            (convPath1): Conv2d(10, 10, kernel_size=(1, 1), stride=(1, 1))
            (convPath2): Conv2d(10, 10, kernel_size=(1, 1), stride=(1, 1))
            (sigmoid): Sigmoid()
            (depthwise_conv1): DepthwiseConv2d(
              (depthwise_conv): Conv2d(10, 10, kernel_size=(3, 3), stride=(1, 1), padding=(1, 1), groups=10)
            )
            (depthwise_conv2): DepthwiseConv2d(
              (depthwise_conv): Conv2d(10, 10, kernel_size=(3, 3), stride=(1, 1), padding=(1, 1), groups=10)
            )
            (depthwise_conv3): DepthwiseConv2d(
              (depthwise_conv): Conv2d(10, 10, kernel_size=(3, 3), stride=(1, 1), padding=(1, 1), groups=10)
            )
            (depthwise_conv5): DepthwiseConv2d(
              (depthwise_conv): Conv2d(20, 20, kernel_size=(3, 3), stride=(1, 1), padding=(1, 1), groups=20)
            )
            (conv1x1): Conv2d(20, 20, kernel_size=(1, 1), stride=(1, 1))
          )
          (lrelu): LeakyReLU(negative_slope=0.2, inplace=True)
        )
        (cca): VarianceChannelAttention(
          (fc): Sequential(
            (0): Linear(in_features=20, out_features=5, bias=False)
            (1): ReLU(inplace=True)
            (2): Linear(in_features=5, out_features=20, bias=False)
          )
          (sigmoid): Sigmoid()
        )
        (fc1): Conv2d(35, 20, kernel_size=(1, 1), stride=(1, 1))
        (fc2): Conv2d(20, 20, kernel_size=(3, 3), stride=(1, 1), padding=(1, 1))
      )
      (conv3): Conv2d(40, 40, kernel_size=(1, 1), stride=(1, 1), bias=False)
      (lrelu): LeakyReLU(negative_slope=0.2, inplace=True)
    )
    (10): ESCPA(
      (conv1_a): Conv2d(40, 20, kernel_size=(1, 1), stride=(1, 1), bias=False)
      (conv1_b): Conv2d(40, 20, kernel_size=(1, 1), stride=(1, 1), bias=False)
      (k1): Conv2d(20, 20, kernel_size=(3, 3), stride=(1, 1), padding=(1, 1))
      (FDB): FDB(
        (fdu1): FeatureDistillationUnit(
          (conv0): Conv2d(5, 5, kernel_size=(1, 1), stride=(1, 1))
          (conv1): Conv2d(15, 20, kernel_size=(1, 1), stride=(1, 1))
          (epa): EPA(
            (convPath1): Conv2d(10, 10, kernel_size=(1, 1), stride=(1, 1))
            (convPath2): Conv2d(10, 10, kernel_size=(1, 1), stride=(1, 1))
            (sigmoid): Sigmoid()
            (depthwise_conv1): DepthwiseConv2d(
              (depthwise_conv): Conv2d(10, 10, kernel_size=(3, 3), stride=(1, 1), padding=(1, 1), groups=10)
            )
            (depthwise_conv2): DepthwiseConv2d(
              (depthwise_conv): Conv2d(10, 10, kernel_size=(3, 3), stride=(1, 1), padding=(1, 1), groups=10)
            )
            (depthwise_conv3): DepthwiseConv2d(
              (depthwise_conv): Conv2d(10, 10, kernel_size=(3, 3), stride=(1, 1), padding=(1, 1), groups=10)
            )
            (depthwise_conv5): DepthwiseConv2d(
              (depthwise_conv): Conv2d(20, 20, kernel_size=(3, 3), stride=(1, 1), padding=(1, 1), groups=20)
            )
            (conv1x1): Conv2d(20, 20, kernel_size=(1, 1), stride=(1, 1))
          )
          (lrelu): LeakyReLU(negative_slope=0.2, inplace=True)
        )
        (fdu2): FeatureDistillationUnit(
          (conv0): Conv2d(5, 5, kernel_size=(1, 1), stride=(1, 1))
          (conv1): Conv2d(15, 20, kernel_size=(1, 1), stride=(1, 1))
          (epa): EPA(
            (convPath1): Conv2d(10, 10, kernel_size=(1, 1), stride=(1, 1))
            (convPath2): Conv2d(10, 10, kernel_size=(1, 1), stride=(1, 1))
            (sigmoid): Sigmoid()
            (depthwise_conv1): DepthwiseConv2d(
              (depthwise_conv): Conv2d(10, 10, kernel_size=(3, 3), stride=(1, 1), padding=(1, 1), groups=10)
            )
            (depthwise_conv2): DepthwiseConv2d(
              (depthwise_conv): Conv2d(10, 10, kernel_size=(3, 3), stride=(1, 1), padding=(1, 1), groups=10)
            )
            (depthwise_conv3): DepthwiseConv2d(
              (depthwise_conv): Conv2d(10, 10, kernel_size=(3, 3), stride=(1, 1), padding=(1, 1), groups=10)
            )
            (depthwise_conv5): DepthwiseConv2d(
              (depthwise_conv): Conv2d(20, 20, kernel_size=(3, 3), stride=(1, 1), padding=(1, 1), groups=20)
            )
            (conv1x1): Conv2d(20, 20, kernel_size=(1, 1), stride=(1, 1))
          )
          (lrelu): LeakyReLU(negative_slope=0.2, inplace=True)
        )
        (fdu3): FeatureDistillationUnit(
          (conv0): Conv2d(5, 5, kernel_size=(1, 1), stride=(1, 1))
          (conv1): Conv2d(15, 20, kernel_size=(1, 1), stride=(1, 1))
          (epa): EPA(
            (convPath1): Conv2d(10, 10, kernel_size=(1, 1), stride=(1, 1))
            (convPath2): Conv2d(10, 10, kernel_size=(1, 1), stride=(1, 1))
            (sigmoid): Sigmoid()
            (depthwise_conv1): DepthwiseConv2d(
              (depthwise_conv): Conv2d(10, 10, kernel_size=(3, 3), stride=(1, 1), padding=(1, 1), groups=10)
            )
            (depthwise_conv2): DepthwiseConv2d(
              (depthwise_conv): Conv2d(10, 10, kernel_size=(3, 3), stride=(1, 1), padding=(1, 1), groups=10)
            )
            (depthwise_conv3): DepthwiseConv2d(
              (depthwise_conv): Conv2d(10, 10, kernel_size=(3, 3), stride=(1, 1), padding=(1, 1), groups=10)
            )
            (depthwise_conv5): DepthwiseConv2d(
              (depthwise_conv): Conv2d(20, 20, kernel_size=(3, 3), stride=(1, 1), padding=(1, 1), groups=20)
            )
            (conv1x1): Conv2d(20, 20, kernel_size=(1, 1), stride=(1, 1))
          )
          (lrelu): LeakyReLU(negative_slope=0.2, inplace=True)
        )
        (cca): VarianceChannelAttention(
          (fc): Sequential(
            (0): Linear(in_features=20, out_features=5, bias=False)
            (1): ReLU(inplace=True)
            (2): Linear(in_features=5, out_features=20, bias=False)
          )
          (sigmoid): Sigmoid()
        )
        (fc1): Conv2d(35, 20, kernel_size=(1, 1), stride=(1, 1))
        (fc2): Conv2d(20, 20, kernel_size=(3, 3), stride=(1, 1), padding=(1, 1))
      )
      (conv3): Conv2d(40, 40, kernel_size=(1, 1), stride=(1, 1), bias=False)
      (lrelu): LeakyReLU(negative_slope=0.2, inplace=True)
    )
    (11): ESCPA(
      (conv1_a): Conv2d(40, 20, kernel_size=(1, 1), stride=(1, 1), bias=False)
      (conv1_b): Conv2d(40, 20, kernel_size=(1, 1), stride=(1, 1), bias=False)
      (k1): Conv2d(20, 20, kernel_size=(3, 3), stride=(1, 1), padding=(1, 1))
      (FDB): FDB(
        (fdu1): FeatureDistillationUnit(
          (conv0): Conv2d(5, 5, kernel_size=(1, 1), stride=(1, 1))
          (conv1): Conv2d(15, 20, kernel_size=(1, 1), stride=(1, 1))
          (epa): EPA(
            (convPath1): Conv2d(10, 10, kernel_size=(1, 1), stride=(1, 1))
            (convPath2): Conv2d(10, 10, kernel_size=(1, 1), stride=(1, 1))
            (sigmoid): Sigmoid()
            (depthwise_conv1): DepthwiseConv2d(
              (depthwise_conv): Conv2d(10, 10, kernel_size=(3, 3), stride=(1, 1), padding=(1, 1), groups=10)
            )
            (depthwise_conv2): DepthwiseConv2d(
              (depthwise_conv): Conv2d(10, 10, kernel_size=(3, 3), stride=(1, 1), padding=(1, 1), groups=10)
            )
            (depthwise_conv3): DepthwiseConv2d(
              (depthwise_conv): Conv2d(10, 10, kernel_size=(3, 3), stride=(1, 1), padding=(1, 1), groups=10)
            )
            (depthwise_conv5): DepthwiseConv2d(
              (depthwise_conv): Conv2d(20, 20, kernel_size=(3, 3), stride=(1, 1), padding=(1, 1), groups=20)
            )
            (conv1x1): Conv2d(20, 20, kernel_size=(1, 1), stride=(1, 1))
          )
          (lrelu): LeakyReLU(negative_slope=0.2, inplace=True)
        )
        (fdu2): FeatureDistillationUnit(
          (conv0): Conv2d(5, 5, kernel_size=(1, 1), stride=(1, 1))
          (conv1): Conv2d(15, 20, kernel_size=(1, 1), stride=(1, 1))
          (epa): EPA(
            (convPath1): Conv2d(10, 10, kernel_size=(1, 1), stride=(1, 1))
            (convPath2): Conv2d(10, 10, kernel_size=(1, 1), stride=(1, 1))
            (sigmoid): Sigmoid()
            (depthwise_conv1): DepthwiseConv2d(
              (depthwise_conv): Conv2d(10, 10, kernel_size=(3, 3), stride=(1, 1), padding=(1, 1), groups=10)
            )
            (depthwise_conv2): DepthwiseConv2d(
              (depthwise_conv): Conv2d(10, 10, kernel_size=(3, 3), stride=(1, 1), padding=(1, 1), groups=10)
            )
            (depthwise_conv3): DepthwiseConv2d(
              (depthwise_conv): Conv2d(10, 10, kernel_size=(3, 3), stride=(1, 1), padding=(1, 1), groups=10)
            )
            (depthwise_conv5): DepthwiseConv2d(
              (depthwise_conv): Conv2d(20, 20, kernel_size=(3, 3), stride=(1, 1), padding=(1, 1), groups=20)
            )
            (conv1x1): Conv2d(20, 20, kernel_size=(1, 1), stride=(1, 1))
          )
          (lrelu): LeakyReLU(negative_slope=0.2, inplace=True)
        )
        (fdu3): FeatureDistillationUnit(
          (conv0): Conv2d(5, 5, kernel_size=(1, 1), stride=(1, 1))
          (conv1): Conv2d(15, 20, kernel_size=(1, 1), stride=(1, 1))
          (epa): EPA(
            (convPath1): Conv2d(10, 10, kernel_size=(1, 1), stride=(1, 1))
            (convPath2): Conv2d(10, 10, kernel_size=(1, 1), stride=(1, 1))
            (sigmoid): Sigmoid()
            (depthwise_conv1): DepthwiseConv2d(
              (depthwise_conv): Conv2d(10, 10, kernel_size=(3, 3), stride=(1, 1), padding=(1, 1), groups=10)
            )
            (depthwise_conv2): DepthwiseConv2d(
              (depthwise_conv): Conv2d(10, 10, kernel_size=(3, 3), stride=(1, 1), padding=(1, 1), groups=10)
            )
            (depthwise_conv3): DepthwiseConv2d(
              (depthwise_conv): Conv2d(10, 10, kernel_size=(3, 3), stride=(1, 1), padding=(1, 1), groups=10)
            )
            (depthwise_conv5): DepthwiseConv2d(
              (depthwise_conv): Conv2d(20, 20, kernel_size=(3, 3), stride=(1, 1), padding=(1, 1), groups=20)
            )
            (conv1x1): Conv2d(20, 20, kernel_size=(1, 1), stride=(1, 1))
          )
          (lrelu): LeakyReLU(negative_slope=0.2, inplace=True)
        )
        (cca): VarianceChannelAttention(
          (fc): Sequential(
            (0): Linear(in_features=20, out_features=5, bias=False)
            (1): ReLU(inplace=True)
            (2): Linear(in_features=5, out_features=20, bias=False)
          )
          (sigmoid): Sigmoid()
        )
        (fc1): Conv2d(35, 20, kernel_size=(1, 1), stride=(1, 1))
        (fc2): Conv2d(20, 20, kernel_size=(3, 3), stride=(1, 1), padding=(1, 1))
      )
      (conv3): Conv2d(40, 40, kernel_size=(1, 1), stride=(1, 1), bias=False)
      (lrelu): LeakyReLU(negative_slope=0.2, inplace=True)
    )
    (12): ESCPA(
      (conv1_a): Conv2d(40, 20, kernel_size=(1, 1), stride=(1, 1), bias=False)
      (conv1_b): Conv2d(40, 20, kernel_size=(1, 1), stride=(1, 1), bias=False)
      (k1): Conv2d(20, 20, kernel_size=(3, 3), stride=(1, 1), padding=(1, 1))
      (FDB): FDB(
        (fdu1): FeatureDistillationUnit(
          (conv0): Conv2d(5, 5, kernel_size=(1, 1), stride=(1, 1))
          (conv1): Conv2d(15, 20, kernel_size=(1, 1), stride=(1, 1))
          (epa): EPA(
            (convPath1): Conv2d(10, 10, kernel_size=(1, 1), stride=(1, 1))
            (convPath2): Conv2d(10, 10, kernel_size=(1, 1), stride=(1, 1))
            (sigmoid): Sigmoid()
            (depthwise_conv1): DepthwiseConv2d(
              (depthwise_conv): Conv2d(10, 10, kernel_size=(3, 3), stride=(1, 1), padding=(1, 1), groups=10)
            )
            (depthwise_conv2): DepthwiseConv2d(
              (depthwise_conv): Conv2d(10, 10, kernel_size=(3, 3), stride=(1, 1), padding=(1, 1), groups=10)
            )
            (depthwise_conv3): DepthwiseConv2d(
              (depthwise_conv): Conv2d(10, 10, kernel_size=(3, 3), stride=(1, 1), padding=(1, 1), groups=10)
            )
            (depthwise_conv5): DepthwiseConv2d(
              (depthwise_conv): Conv2d(20, 20, kernel_size=(3, 3), stride=(1, 1), padding=(1, 1), groups=20)
            )
            (conv1x1): Conv2d(20, 20, kernel_size=(1, 1), stride=(1, 1))
          )
          (lrelu): LeakyReLU(negative_slope=0.2, inplace=True)
        )
        (fdu2): FeatureDistillationUnit(
          (conv0): Conv2d(5, 5, kernel_size=(1, 1), stride=(1, 1))
          (conv1): Conv2d(15, 20, kernel_size=(1, 1), stride=(1, 1))
          (epa): EPA(
            (convPath1): Conv2d(10, 10, kernel_size=(1, 1), stride=(1, 1))
            (convPath2): Conv2d(10, 10, kernel_size=(1, 1), stride=(1, 1))
            (sigmoid): Sigmoid()
            (depthwise_conv1): DepthwiseConv2d(
              (depthwise_conv): Conv2d(10, 10, kernel_size=(3, 3), stride=(1, 1), padding=(1, 1), groups=10)
            )
            (depthwise_conv2): DepthwiseConv2d(
              (depthwise_conv): Conv2d(10, 10, kernel_size=(3, 3), stride=(1, 1), padding=(1, 1), groups=10)
            )
            (depthwise_conv3): DepthwiseConv2d(
              (depthwise_conv): Conv2d(10, 10, kernel_size=(3, 3), stride=(1, 1), padding=(1, 1), groups=10)
            )
            (depthwise_conv5): DepthwiseConv2d(
              (depthwise_conv): Conv2d(20, 20, kernel_size=(3, 3), stride=(1, 1), padding=(1, 1), groups=20)
            )
            (conv1x1): Conv2d(20, 20, kernel_size=(1, 1), stride=(1, 1))
          )
          (lrelu): LeakyReLU(negative_slope=0.2, inplace=True)
        )
        (fdu3): FeatureDistillationUnit(
          (conv0): Conv2d(5, 5, kernel_size=(1, 1), stride=(1, 1))
          (conv1): Conv2d(15, 20, kernel_size=(1, 1), stride=(1, 1))
          (epa): EPA(
            (convPath1): Conv2d(10, 10, kernel_size=(1, 1), stride=(1, 1))
            (convPath2): Conv2d(10, 10, kernel_size=(1, 1), stride=(1, 1))
            (sigmoid): Sigmoid()
            (depthwise_conv1): DepthwiseConv2d(
              (depthwise_conv): Conv2d(10, 10, kernel_size=(3, 3), stride=(1, 1), padding=(1, 1), groups=10)
            )
            (depthwise_conv2): DepthwiseConv2d(
              (depthwise_conv): Conv2d(10, 10, kernel_size=(3, 3), stride=(1, 1), padding=(1, 1), groups=10)
            )
            (depthwise_conv3): DepthwiseConv2d(
              (depthwise_conv): Conv2d(10, 10, kernel_size=(3, 3), stride=(1, 1), padding=(1, 1), groups=10)
            )
            (depthwise_conv5): DepthwiseConv2d(
              (depthwise_conv): Conv2d(20, 20, kernel_size=(3, 3), stride=(1, 1), padding=(1, 1), groups=20)
            )
            (conv1x1): Conv2d(20, 20, kernel_size=(1, 1), stride=(1, 1))
          )
          (lrelu): LeakyReLU(negative_slope=0.2, inplace=True)
        )
        (cca): VarianceChannelAttention(
          (fc): Sequential(
            (0): Linear(in_features=20, out_features=5, bias=False)
            (1): ReLU(inplace=True)
            (2): Linear(in_features=5, out_features=20, bias=False)
          )
          (sigmoid): Sigmoid()
        )
        (fc1): Conv2d(35, 20, kernel_size=(1, 1), stride=(1, 1))
        (fc2): Conv2d(20, 20, kernel_size=(3, 3), stride=(1, 1), padding=(1, 1))
      )
      (conv3): Conv2d(40, 40, kernel_size=(1, 1), stride=(1, 1), bias=False)
      (lrelu): LeakyReLU(negative_slope=0.2, inplace=True)
    )
    (13): ESCPA(
      (conv1_a): Conv2d(40, 20, kernel_size=(1, 1), stride=(1, 1), bias=False)
      (conv1_b): Conv2d(40, 20, kernel_size=(1, 1), stride=(1, 1), bias=False)
      (k1): Conv2d(20, 20, kernel_size=(3, 3), stride=(1, 1), padding=(1, 1))
      (FDB): FDB(
        (fdu1): FeatureDistillationUnit(
          (conv0): Conv2d(5, 5, kernel_size=(1, 1), stride=(1, 1))
          (conv1): Conv2d(15, 20, kernel_size=(1, 1), stride=(1, 1))
          (epa): EPA(
            (convPath1): Conv2d(10, 10, kernel_size=(1, 1), stride=(1, 1))
            (convPath2): Conv2d(10, 10, kernel_size=(1, 1), stride=(1, 1))
            (sigmoid): Sigmoid()
            (depthwise_conv1): DepthwiseConv2d(
              (depthwise_conv): Conv2d(10, 10, kernel_size=(3, 3), stride=(1, 1), padding=(1, 1), groups=10)
            )
            (depthwise_conv2): DepthwiseConv2d(
              (depthwise_conv): Conv2d(10, 10, kernel_size=(3, 3), stride=(1, 1), padding=(1, 1), groups=10)
            )
            (depthwise_conv3): DepthwiseConv2d(
              (depthwise_conv): Conv2d(10, 10, kernel_size=(3, 3), stride=(1, 1), padding=(1, 1), groups=10)
            )
            (depthwise_conv5): DepthwiseConv2d(
              (depthwise_conv): Conv2d(20, 20, kernel_size=(3, 3), stride=(1, 1), padding=(1, 1), groups=20)
            )
            (conv1x1): Conv2d(20, 20, kernel_size=(1, 1), stride=(1, 1))
          )
          (lrelu): LeakyReLU(negative_slope=0.2, inplace=True)
        )
        (fdu2): FeatureDistillationUnit(
          (conv0): Conv2d(5, 5, kernel_size=(1, 1), stride=(1, 1))
          (conv1): Conv2d(15, 20, kernel_size=(1, 1), stride=(1, 1))
          (epa): EPA(
            (convPath1): Conv2d(10, 10, kernel_size=(1, 1), stride=(1, 1))
            (convPath2): Conv2d(10, 10, kernel_size=(1, 1), stride=(1, 1))
            (sigmoid): Sigmoid()
            (depthwise_conv1): DepthwiseConv2d(
              (depthwise_conv): Conv2d(10, 10, kernel_size=(3, 3), stride=(1, 1), padding=(1, 1), groups=10)
            )
            (depthwise_conv2): DepthwiseConv2d(
              (depthwise_conv): Conv2d(10, 10, kernel_size=(3, 3), stride=(1, 1), padding=(1, 1), groups=10)
            )
            (depthwise_conv3): DepthwiseConv2d(
              (depthwise_conv): Conv2d(10, 10, kernel_size=(3, 3), stride=(1, 1), padding=(1, 1), groups=10)
            )
            (depthwise_conv5): DepthwiseConv2d(
              (depthwise_conv): Conv2d(20, 20, kernel_size=(3, 3), stride=(1, 1), padding=(1, 1), groups=20)
            )
            (conv1x1): Conv2d(20, 20, kernel_size=(1, 1), stride=(1, 1))
          )
          (lrelu): LeakyReLU(negative_slope=0.2, inplace=True)
        )
        (fdu3): FeatureDistillationUnit(
          (conv0): Conv2d(5, 5, kernel_size=(1, 1), stride=(1, 1))
          (conv1): Conv2d(15, 20, kernel_size=(1, 1), stride=(1, 1))
          (epa): EPA(
            (convPath1): Conv2d(10, 10, kernel_size=(1, 1), stride=(1, 1))
            (convPath2): Conv2d(10, 10, kernel_size=(1, 1), stride=(1, 1))
            (sigmoid): Sigmoid()
            (depthwise_conv1): DepthwiseConv2d(
              (depthwise_conv): Conv2d(10, 10, kernel_size=(3, 3), stride=(1, 1), padding=(1, 1), groups=10)
            )
            (depthwise_conv2): DepthwiseConv2d(
              (depthwise_conv): Conv2d(10, 10, kernel_size=(3, 3), stride=(1, 1), padding=(1, 1), groups=10)
            )
            (depthwise_conv3): DepthwiseConv2d(
              (depthwise_conv): Conv2d(10, 10, kernel_size=(3, 3), stride=(1, 1), padding=(1, 1), groups=10)
            )
            (depthwise_conv5): DepthwiseConv2d(
              (depthwise_conv): Conv2d(20, 20, kernel_size=(3, 3), stride=(1, 1), padding=(1, 1), groups=20)
            )
            (conv1x1): Conv2d(20, 20, kernel_size=(1, 1), stride=(1, 1))
          )
          (lrelu): LeakyReLU(negative_slope=0.2, inplace=True)
        )
        (cca): VarianceChannelAttention(
          (fc): Sequential(
            (0): Linear(in_features=20, out_features=5, bias=False)
            (1): ReLU(inplace=True)
            (2): Linear(in_features=5, out_features=20, bias=False)
          )
          (sigmoid): Sigmoid()
        )
        (fc1): Conv2d(35, 20, kernel_size=(1, 1), stride=(1, 1))
        (fc2): Conv2d(20, 20, kernel_size=(3, 3), stride=(1, 1), padding=(1, 1))
      )
      (conv3): Conv2d(40, 40, kernel_size=(1, 1), stride=(1, 1), bias=False)
      (lrelu): LeakyReLU(negative_slope=0.2, inplace=True)
    )
    (14): ESCPA(
      (conv1_a): Conv2d(40, 20, kernel_size=(1, 1), stride=(1, 1), bias=False)
      (conv1_b): Conv2d(40, 20, kernel_size=(1, 1), stride=(1, 1), bias=False)
      (k1): Conv2d(20, 20, kernel_size=(3, 3), stride=(1, 1), padding=(1, 1))
      (FDB): FDB(
        (fdu1): FeatureDistillationUnit(
          (conv0): Conv2d(5, 5, kernel_size=(1, 1), stride=(1, 1))
          (conv1): Conv2d(15, 20, kernel_size=(1, 1), stride=(1, 1))
          (epa): EPA(
            (convPath1): Conv2d(10, 10, kernel_size=(1, 1), stride=(1, 1))
            (convPath2): Conv2d(10, 10, kernel_size=(1, 1), stride=(1, 1))
            (sigmoid): Sigmoid()
            (depthwise_conv1): DepthwiseConv2d(
              (depthwise_conv): Conv2d(10, 10, kernel_size=(3, 3), stride=(1, 1), padding=(1, 1), groups=10)
            )
            (depthwise_conv2): DepthwiseConv2d(
              (depthwise_conv): Conv2d(10, 10, kernel_size=(3, 3), stride=(1, 1), padding=(1, 1), groups=10)
            )
            (depthwise_conv3): DepthwiseConv2d(
              (depthwise_conv): Conv2d(10, 10, kernel_size=(3, 3), stride=(1, 1), padding=(1, 1), groups=10)
            )
            (depthwise_conv5): DepthwiseConv2d(
              (depthwise_conv): Conv2d(20, 20, kernel_size=(3, 3), stride=(1, 1), padding=(1, 1), groups=20)
            )
            (conv1x1): Conv2d(20, 20, kernel_size=(1, 1), stride=(1, 1))
          )
          (lrelu): LeakyReLU(negative_slope=0.2, inplace=True)
        )
        (fdu2): FeatureDistillationUnit(
          (conv0): Conv2d(5, 5, kernel_size=(1, 1), stride=(1, 1))
          (conv1): Conv2d(15, 20, kernel_size=(1, 1), stride=(1, 1))
          (epa): EPA(
            (convPath1): Conv2d(10, 10, kernel_size=(1, 1), stride=(1, 1))
            (convPath2): Conv2d(10, 10, kernel_size=(1, 1), stride=(1, 1))
            (sigmoid): Sigmoid()
            (depthwise_conv1): DepthwiseConv2d(
              (depthwise_conv): Conv2d(10, 10, kernel_size=(3, 3), stride=(1, 1), padding=(1, 1), groups=10)
            )
            (depthwise_conv2): DepthwiseConv2d(
              (depthwise_conv): Conv2d(10, 10, kernel_size=(3, 3), stride=(1, 1), padding=(1, 1), groups=10)
            )
            (depthwise_conv3): DepthwiseConv2d(
              (depthwise_conv): Conv2d(10, 10, kernel_size=(3, 3), stride=(1, 1), padding=(1, 1), groups=10)
            )
            (depthwise_conv5): DepthwiseConv2d(
              (depthwise_conv): Conv2d(20, 20, kernel_size=(3, 3), stride=(1, 1), padding=(1, 1), groups=20)
            )
            (conv1x1): Conv2d(20, 20, kernel_size=(1, 1), stride=(1, 1))
          )
          (lrelu): LeakyReLU(negative_slope=0.2, inplace=True)
        )
        (fdu3): FeatureDistillationUnit(
          (conv0): Conv2d(5, 5, kernel_size=(1, 1), stride=(1, 1))
          (conv1): Conv2d(15, 20, kernel_size=(1, 1), stride=(1, 1))
          (epa): EPA(
            (convPath1): Conv2d(10, 10, kernel_size=(1, 1), stride=(1, 1))
            (convPath2): Conv2d(10, 10, kernel_size=(1, 1), stride=(1, 1))
            (sigmoid): Sigmoid()
            (depthwise_conv1): DepthwiseConv2d(
              (depthwise_conv): Conv2d(10, 10, kernel_size=(3, 3), stride=(1, 1), padding=(1, 1), groups=10)
            )
            (depthwise_conv2): DepthwiseConv2d(
              (depthwise_conv): Conv2d(10, 10, kernel_size=(3, 3), stride=(1, 1), padding=(1, 1), groups=10)
            )
            (depthwise_conv3): DepthwiseConv2d(
              (depthwise_conv): Conv2d(10, 10, kernel_size=(3, 3), stride=(1, 1), padding=(1, 1), groups=10)
            )
            (depthwise_conv5): DepthwiseConv2d(
              (depthwise_conv): Conv2d(20, 20, kernel_size=(3, 3), stride=(1, 1), padding=(1, 1), groups=20)
            )
            (conv1x1): Conv2d(20, 20, kernel_size=(1, 1), stride=(1, 1))
          )
          (lrelu): LeakyReLU(negative_slope=0.2, inplace=True)
        )
        (cca): VarianceChannelAttention(
          (fc): Sequential(
            (0): Linear(in_features=20, out_features=5, bias=False)
            (1): ReLU(inplace=True)
            (2): Linear(in_features=5, out_features=20, bias=False)
          )
          (sigmoid): Sigmoid()
        )
        (fc1): Conv2d(35, 20, kernel_size=(1, 1), stride=(1, 1))
        (fc2): Conv2d(20, 20, kernel_size=(3, 3), stride=(1, 1), padding=(1, 1))
      )
      (conv3): Conv2d(40, 40, kernel_size=(1, 1), stride=(1, 1), bias=False)
      (lrelu): LeakyReLU(negative_slope=0.2, inplace=True)
    )
    (15): ESCPA(
      (conv1_a): Conv2d(40, 20, kernel_size=(1, 1), stride=(1, 1), bias=False)
      (conv1_b): Conv2d(40, 20, kernel_size=(1, 1), stride=(1, 1), bias=False)
      (k1): Conv2d(20, 20, kernel_size=(3, 3), stride=(1, 1), padding=(1, 1))
      (FDB): FDB(
        (fdu1): FeatureDistillationUnit(
          (conv0): Conv2d(5, 5, kernel_size=(1, 1), stride=(1, 1))
          (conv1): Conv2d(15, 20, kernel_size=(1, 1), stride=(1, 1))
          (epa): EPA(
            (convPath1): Conv2d(10, 10, kernel_size=(1, 1), stride=(1, 1))
            (convPath2): Conv2d(10, 10, kernel_size=(1, 1), stride=(1, 1))
            (sigmoid): Sigmoid()
            (depthwise_conv1): DepthwiseConv2d(
              (depthwise_conv): Conv2d(10, 10, kernel_size=(3, 3), stride=(1, 1), padding=(1, 1), groups=10)
            )
            (depthwise_conv2): DepthwiseConv2d(
              (depthwise_conv): Conv2d(10, 10, kernel_size=(3, 3), stride=(1, 1), padding=(1, 1), groups=10)
            )
            (depthwise_conv3): DepthwiseConv2d(
              (depthwise_conv): Conv2d(10, 10, kernel_size=(3, 3), stride=(1, 1), padding=(1, 1), groups=10)
            )
            (depthwise_conv5): DepthwiseConv2d(
              (depthwise_conv): Conv2d(20, 20, kernel_size=(3, 3), stride=(1, 1), padding=(1, 1), groups=20)
            )
            (conv1x1): Conv2d(20, 20, kernel_size=(1, 1), stride=(1, 1))
          )
          (lrelu): LeakyReLU(negative_slope=0.2, inplace=True)
        )
        (fdu2): FeatureDistillationUnit(
          (conv0): Conv2d(5, 5, kernel_size=(1, 1), stride=(1, 1))
          (conv1): Conv2d(15, 20, kernel_size=(1, 1), stride=(1, 1))
          (epa): EPA(
            (convPath1): Conv2d(10, 10, kernel_size=(1, 1), stride=(1, 1))
            (convPath2): Conv2d(10, 10, kernel_size=(1, 1), stride=(1, 1))
            (sigmoid): Sigmoid()
            (depthwise_conv1): DepthwiseConv2d(
              (depthwise_conv): Conv2d(10, 10, kernel_size=(3, 3), stride=(1, 1), padding=(1, 1), groups=10)
            )
            (depthwise_conv2): DepthwiseConv2d(
              (depthwise_conv): Conv2d(10, 10, kernel_size=(3, 3), stride=(1, 1), padding=(1, 1), groups=10)
            )
            (depthwise_conv3): DepthwiseConv2d(
              (depthwise_conv): Conv2d(10, 10, kernel_size=(3, 3), stride=(1, 1), padding=(1, 1), groups=10)
            )
            (depthwise_conv5): DepthwiseConv2d(
              (depthwise_conv): Conv2d(20, 20, kernel_size=(3, 3), stride=(1, 1), padding=(1, 1), groups=20)
            )
            (conv1x1): Conv2d(20, 20, kernel_size=(1, 1), stride=(1, 1))
          )
          (lrelu): LeakyReLU(negative_slope=0.2, inplace=True)
        )
        (fdu3): FeatureDistillationUnit(
          (conv0): Conv2d(5, 5, kernel_size=(1, 1), stride=(1, 1))
          (conv1): Conv2d(15, 20, kernel_size=(1, 1), stride=(1, 1))
          (epa): EPA(
            (convPath1): Conv2d(10, 10, kernel_size=(1, 1), stride=(1, 1))
            (convPath2): Conv2d(10, 10, kernel_size=(1, 1), stride=(1, 1))
            (sigmoid): Sigmoid()
            (depthwise_conv1): DepthwiseConv2d(
              (depthwise_conv): Conv2d(10, 10, kernel_size=(3, 3), stride=(1, 1), padding=(1, 1), groups=10)
            )
            (depthwise_conv2): DepthwiseConv2d(
              (depthwise_conv): Conv2d(10, 10, kernel_size=(3, 3), stride=(1, 1), padding=(1, 1), groups=10)
            )
            (depthwise_conv3): DepthwiseConv2d(
              (depthwise_conv): Conv2d(10, 10, kernel_size=(3, 3), stride=(1, 1), padding=(1, 1), groups=10)
            )
            (depthwise_conv5): DepthwiseConv2d(
              (depthwise_conv): Conv2d(20, 20, kernel_size=(3, 3), stride=(1, 1), padding=(1, 1), groups=20)
            )
            (conv1x1): Conv2d(20, 20, kernel_size=(1, 1), stride=(1, 1))
          )
          (lrelu): LeakyReLU(negative_slope=0.2, inplace=True)
        )
        (cca): VarianceChannelAttention(
          (fc): Sequential(
            (0): Linear(in_features=20, out_features=5, bias=False)
            (1): ReLU(inplace=True)
            (2): Linear(in_features=5, out_features=20, bias=False)
          )
          (sigmoid): Sigmoid()
        )
        (fc1): Conv2d(35, 20, kernel_size=(1, 1), stride=(1, 1))
        (fc2): Conv2d(20, 20, kernel_size=(3, 3), stride=(1, 1), padding=(1, 1))
      )
      (conv3): Conv2d(40, 40, kernel_size=(1, 1), stride=(1, 1), bias=False)
      (lrelu): LeakyReLU(negative_slope=0.2, inplace=True)
    )
  )
  (trunk_conv): Conv2d(40, 40, kernel_size=(3, 3), stride=(1, 1), padding=(1, 1))
  (upconv1): Conv2d(40, 24, kernel_size=(3, 3), stride=(1, 1), padding=(1, 1))
  (att1): EPA(
    (convPath1): Conv2d(12, 12, kernel_size=(1, 1), stride=(1, 1))
    (convPath2): Conv2d(12, 12, kernel_size=(1, 1), stride=(1, 1))
    (sigmoid): Sigmoid()
    (depthwise_conv1): DepthwiseConv2d(
      (depthwise_conv): Conv2d(12, 12, kernel_size=(3, 3), stride=(1, 1), padding=(1, 1), groups=12)
    )
    (depthwise_conv2): DepthwiseConv2d(
      (depthwise_conv): Conv2d(12, 12, kernel_size=(3, 3), stride=(1, 1), padding=(1, 1), groups=12)
    )
    (depthwise_conv3): DepthwiseConv2d(
      (depthwise_conv): Conv2d(12, 12, kernel_size=(3, 3), stride=(1, 1), padding=(1, 1), groups=12)
    )
    (depthwise_conv5): DepthwiseConv2d(
      (depthwise_conv): Conv2d(24, 24, kernel_size=(3, 3), stride=(1, 1), padding=(1, 1), groups=24)
    )
    (conv1x1): Conv2d(24, 24, kernel_size=(1, 1), stride=(1, 1))
  )
  (HRconv1): Conv2d(24, 24, kernel_size=(3, 3), stride=(1, 1), padding=(1, 1))
  (upconv2): Conv2d(24, 24, kernel_size=(3, 3), stride=(1, 1), padding=(1, 1))
  (att2): EPA(
    (convPath1): Conv2d(12, 12, kernel_size=(1, 1), stride=(1, 1))
    (convPath2): Conv2d(12, 12, kernel_size=(1, 1), stride=(1, 1))
    (sigmoid): Sigmoid()
    (depthwise_conv1): DepthwiseConv2d(
      (depthwise_conv): Conv2d(12, 12, kernel_size=(3, 3), stride=(1, 1), padding=(1, 1), groups=12)
    )
    (depthwise_conv2): DepthwiseConv2d(
      (depthwise_conv): Conv2d(12, 12, kernel_size=(3, 3), stride=(1, 1), padding=(1, 1), groups=12)
    )
    (depthwise_conv3): DepthwiseConv2d(
      (depthwise_conv): Conv2d(12, 12, kernel_size=(3, 3), stride=(1, 1), padding=(1, 1), groups=12)
    )
    (depthwise_conv5): DepthwiseConv2d(
      (depthwise_conv): Conv2d(24, 24, kernel_size=(3, 3), stride=(1, 1), padding=(1, 1), groups=24)
    )
    (conv1x1): Conv2d(24, 24, kernel_size=(1, 1), stride=(1, 1))
  )
  (HRconv2): Conv2d(24, 24, kernel_size=(3, 3), stride=(1, 1), padding=(1, 1))
  (conv_last): Conv2d(24, 3, kernel_size=(3, 3), stride=(1, 1), padding=(1, 1))
  (lrelu): LeakyReLU(negative_slope=0.2, inplace=True)
)
24-03-04 17:54:09.254 - INFO: Loading model for G [/home/xxl/PAN/experiments/EPANx4_DIV2K/models/latest_G.pth] ...
24-03-04 17:54:10.190 - INFO: Model [SRModel] is created.
24-03-04 17:54:10.190 - INFO: 
Testing [Set5]...
24-03-04 17:54:15.011 - INFO: baby                 - PSNR: 32.186202 dB; SSIM: 0.867281; PSNR_Y: 33.694508 dB; SSIM_Y: 0.892303.
…
