…
24-03-04 17:46:31.006 - INFO: Number of test images in [Set14]: 14
24-03-04 17:46:31.007 - INFO: Dataset [LQGTDataset - B100] is created.
24-03-04 17:46:31.007 - INFO: Number of test images in [B100]: 100
24-03-04 17:46:31.008 - INFO: Dataset [LQGTDataset - Urban100] is created.
24-03-04 17:46:31.008 - INFO: Number of test images in [Urban100]: 100
24-03-04 17:46:31.008 - INFO: Dataset [LQGTDataset - Manga109] is created.
24-03-04 17:46:31.008 - INFO: Number of test images in [Manga109]: 109
24-03-04 17:46:33.450 - INFO: Network G structure: DataParallel - PAN, with parameters: 272,419
24-03-04 17:46:33.450 - INFO: PAN(
  (conv_first): Conv2d(3, 40, kernel_size=(3, 3), stride=(1, 1), padding=(1, 1))
  (SCPA_trunk): Sequential(
    (0): SCPA(
      (conv1_a): Conv2d(40, 20, kernel_size=(1, 1), stride=(1, 1), bias=False)
      (conv1_b): Conv2d(40, 20, kernel_size=(1, 1), stride=(1, 1), bias=False)
      (k1): Sequential(
        (0): Conv2d(20, 20, kernel_size=(3, 3), stride=(1, 1), padding=(1, 1), bias=False)
      )
      (PAConv): PAConv(
        (k2): Conv2d(20, 20, kernel_size=(1, 1), stride=(1, 1))
        (sigmoid): Sigmoid()
        (k3): Conv2d(20, 20, kernel_size=(3, 3), stride=(1, 1), padding=(1, 1), bias=False)
        (k4): Conv2d(20, 20, kernel_size=(3, 3), stride=(1, 1), padding=(1, 1), bias=False)
      )
      (conv3): Conv2d(40, 40, kernel_size=(1, 1), stride=(1, 1), bias=False)
      (lrelu): LeakyReLU(negative_slope=0.2, inplace=True)
    )
    (1): SCPA(
      (conv1_a): Conv2d(40, 20, kernel_size=(1, 1), stride=(1, 1), bias=False)
      (conv1_b): Conv2d(40, 20, kernel_size=(1, 1), stride=(1, 1), bias=False)
      (k1): Sequential(
        (0): Conv2d(20, 20, kernel_size=(3, 3), stride=(1, 1), padding=(1, 1), bias=False)
      )
      (PAConv): PAConv(
        (k2): Conv2d(20, 20, kernel_size=(1, 1), stride=(1, 1))
        (sigmoid): Sigmoid()
        (k3): Conv2d(20, 20, kernel_size=(3, 3), stride=(1, 1), padding=(1, 1), bias=False)
        (k4): Conv2d(20, 20, kernel_size=(3, 3), stride=(1, 1), padding=(1, 1), bias=False)
      )
      (conv3): Conv2d(40, 40, kernel_size=(1, 1), stride=(1, 1), bias=False)
      (lrelu): LeakyReLU(negative_slope=0.2, inplace=True)
    )
    (2): SCPA(
      (conv1_a): Conv2d(40, 20, kernel_size=(1, 1), stride=(1, 1), bias=False)
      (conv1_b): Conv2d(40, 20, kernel_size=(1, 1), stride=(1, 1), bias=False)
      (k1): Sequential(
        (0): Conv2d(20, 20, kernel_size=(3, 3), stride=(1, 1), padding=(1, 1), bias=False)
      )
      (PAConv): PAConv(
        (k2): Conv2d(20, 20, kernel_size=(1, 1), stride=(1, 1))
        (sigmoid): Sigmoid()
        (k3): Conv2d(20, 20, kernel_size=(3, 3), stride=(1, 1), padding=(1, 1), bias=False)
        (k4): Conv2d(20, 20, kernel_size=(3, 3), stride=(1, 1), padding=(1, 1), bias=False)
      )
      (conv3): Conv2d(40, 40, kernel_size=(1, 1), stride=(1, 1), bias=False)
      (lrelu): LeakyReLU(negative_slope=0.2, inplace=True)
    )
    (3): SCPA(
      (conv1_a): Conv2d(40, 20, kernel_size=(1, 1), stride=(1, 1), bias=False)
      (conv1_b): Conv2d(40, 20, kernel_size=(1, 1), stride=(1, 1), bias=False)
      (k1): Sequential(
        (0): Conv2d(20, 20, kernel_size=(3, 3), stride=(1, 1), padding=(1, 1), bias=False)
      )
      (PAConv): PAConv(
        (k2): Conv2d(20, 20, kernel_size=(1, 1), stride=(1, 1))
        (sigmoid): Sigmoid()
        (k3): Conv2d(20, 20, kernel_size=(3, 3), stride=(1, 1), padding=(1, 1), bias=False)
        (k4): Conv2d(20, 20, kernel_size=(3, 3), stride=(1, 1), padding=(1, 1), bias=False)
      )
      (conv3): Conv2d(40, 40, kernel_size=(1, 1), stride=(1, 1), bias=False)
      (lrelu): LeakyReLU(negative_slope=0.2, inplace=True)
    )
    (4): SCPA(
      (conv1_a): Conv2d(40, 20, kernel_size=(1, 1), stride=(1, 1), bias=False)
      (conv1_b): Conv2d(40, 20, kernel_size=(1, 1), stride=(1, 1), bias=False)
      (k1): Sequential(
        (0): Conv2d(20, 20, kernel_size=(3, 3), stride=(1, 1), padding=(1, 1), bias=False)
      )
      (PAConv): PAConv(
        (k2): Conv2d(20, 20, kernel_size=(1, 1), stride=(1, 1))
        (sigmoid): Sigmoid()
        (k3): Conv2d(20, 20, kernel_size=(3, 3), stride=(1, 1), padding=(1, 1), bias=False)
        (k4): Conv2d(20, 20, kernel_size=(3, 3), stride=(1, 1), padding=(1, 1), bias=False)
      )
      (conv3): Conv2d(40, 40, kernel_size=(1, 1), stride=(1, 1), bias=False)
      (lrelu): LeakyReLU(negative_slope=0.2, inplace=True)
    )
    (5): SCPA(
      (conv1_a): Conv2d(40, 20, kernel_size=(1, 1), stride=(1, 1), bias=False)
      (conv1_b): Conv2d(40, 20, kernel_size=(1, 1), stride=(1, 1), bias=False)
      (k1): Sequential(
        (0): Conv2d(20, 20, kernel_size=(3, 3), stride=(1, 1), padding=(1, 1), bias=False)
      )
      (PAConv): PAConv(
        (k2): Conv2d(20, 20, kernel_size=(1, 1), stride=(1, 1))
        (sigmoid): Sigmoid()
        (k3): Conv2d(20, 20, kernel_size=(3, 3), stride=(1, 1), padding=(1, 1), bias=False)
        (k4): Conv2d(20, 20, kernel_size=(3, 3), stride=(1, 1), padding=(1, 1), bias=False)
      )
      (conv3): Conv2d(40, 40, kernel_size=(1, 1), stride=(1, 1), bias=False)
      (lrelu): LeakyReLU(negative_slope=0.2, inplace=True)
    )
    (6): SCPA(
      (conv1_a): Conv2d(40, 20, kernel_size=(1, 1), stride=(1, 1), bias=False)
      (conv1_b): Conv2d(40, 20, kernel_size=(1, 1), stride=(1, 1), bias=False)
      (k1): Sequential(
        (0): Conv2d(20, 20, kernel_size=(3, 3), stride=(1, 1), padding=(1, 1), bias=False)
      )
      (PAConv): PAConv(
        (k2): Conv2d(20, 20, kernel_size=(1, 1), stride=(1, 1))
        (sigmoid): Sigmoid()
        (k3): Conv2d(20, 20, kernel_size=(3, 3), stride=(1, 1), padding=(1, 1), bias=False)
        (k4): Conv2d(20, 20, kernel_size=(3, 3), stride=(1, 1), padding=(1, 1), bias=False)
      )
      (conv3): Conv2d(40, 40, kernel_size=(1, 1), stride=(1, 1), bias=False)
      (lrelu): LeakyReLU(negative_slope=0.2, inplace=True)
    )
    (7): SCPA(
      (conv1_a): Conv2d(40, 20, kernel_size=(1, 1), stride=(1, 1), bias=False)
      (conv1_b): Conv2d(40, 20, kernel_size=(1, 1), stride=(1, 1), bias=False)
      (k1): Sequential(
        (0): Conv2d(20, 20, kernel_size=(3, 3), stride=(1, 1), padding=(1, 1), bias=False)
      )
      (PAConv): PAConv(
        (k2): Conv2d(20, 20, kernel_size=(1, 1), stride=(1, 1))
        (sigmoid): Sigmoid()
        (k3): Conv2d(20, 20, kernel_size=(3, 3), stride=(1, 1), padding=(1, 1), bias=False)
        (k4): Conv2d(20, 20, kernel_size=(3, 3), stride=(1, 1), padding=(1, 1), bias=False)
      )
      (conv3): Conv2d(40, 40, kernel_size=(1, 1), stride=(1, 1), bias=False)
      (lrelu): LeakyReLU(negative_slope=0.2, inplace=True)
    )
    (8): SCPA(
      (conv1_a): Conv2d(40, 20, kernel_size=(1, 1), stride=(1, 1), bias=False)
      (conv1_b): Conv2d(40, 20, kernel_size=(1, 1), stride=(1, 1), bias=False)
      (k1): Sequential(
        (0): Conv2d(20, 20, kernel_size=(3, 3), stride=(1, 1), padding=(1, 1), bias=False)
      )
      (PAConv): PAConv(
        (k2): Conv2d(20, 20, kernel_size=(1, 1), stride=(1, 1))
        (sigmoid): Sigmoid()
        (k3): Conv2d(20, 20, kernel_size=(3, 3), stride=(1, 1), padding=(1, 1), bias=False)
        (k4): Conv2d(20, 20, kernel_size=(3, 3), stride=(1, 1), padding=(1, 1), bias=False)
      )
      (conv3): Conv2d(40, 40, kernel_size=(1, 1), stride=(1, 1), bias=False)
      (lrelu): LeakyReLU(negative_slope=0.2, inplace=True)
    )
    (9): SCPA(
      (conv1_a): Conv2d(40, 20, kernel_size=(1, 1), stride=(1, 1), bias=False)
      (conv1_b): Conv2d(40, 20, kernel_size=(1, 1), stride=(1, 1), bias=False)
      (k1): Sequential(
        (0): Conv2d(20, 20, kernel_size=(3, 3), stride=(1, 1), padding=(1, 1), bias=False)
      )
      (PAConv): PAConv(
        (k2): Conv2d(20, 20, kernel_size=(1, 1), stride=(1, 1))
        (sigmoid): Sigmoid()
        (k3): Conv2d(20, 20, kernel_size=(3, 3), stride=(1, 1), padding=(1, 1), bias=False)
        (k4): Conv2d(20, 20, kernel_size=(3, 3), stride=(1, 1), padding=(1, 1), bias=False)
      )
      (conv3): Conv2d(40, 40, kernel_size=(1, 1), stride=(1, 1), bias=False)
      (lrelu): LeakyReLU(negative_slope=0.2, inplace=True)
    )
    (10): SCPA(
      (conv1_a): Conv2d(40, 20, kernel_size=(1, 1), stride=(1, 1), bias=False)
      (conv1_b): Conv2d(40, 20, kernel_size=(1, 1), stride=(1, 1), bias=False)
      (k1): Sequential(
        (0): Conv2d(20, 20, kernel_size=(3, 3), stride=(1, 1), padding=(1, 1), bias=False)
      )
      (PAConv): PAConv(
        (k2): Conv2d(20, 20, kernel_size=(1, 1), stride=(1, 1))
        (sigmoid): Sigmoid()
        (k3): Conv2d(20, 20, kernel_size=(3, 3), stride=(1, 1), padding=(1, 1), bias=False)
        (k4): Conv2d(20, 20, kernel_size=(3, 3), stride=(1, 1), padding=(1, 1), bias=False)
      )
      (conv3): Conv2d(40, 40, kernel_size=(1, 1), stride=(1, 1), bias=False)
      (lrelu): LeakyReLU(negative_slope=0.2, inplace=True)
    )
    (11): SCPA(
      (conv1_a): Conv2d(40, 20, kernel_size=(1, 1), stride=(1, 1), bias=False)
      (conv1_b): Conv2d(40, 20, kernel_size=(1, 1), stride=(1, 1), bias=False)
      (k1): Sequential(
        (0): Conv2d(20, 20, kernel_size=(3, 3), stride=(1, 1), padding=(1, 1), bias=False)
      )
      (PAConv): PAConv(
        (k2): Conv2d(20, 20, kernel_size=(1, 1), stride=(1, 1))
        (sigmoid): Sigmoid()
        (k3): Conv2d(20, 20, kernel_size=(3, 3), stride=(1, 1), padding=(1, 1), bias=False)
        (k4): Conv2d(20, 20, kernel_size=(3, 3), stride=(1, 1), padding=(1, 1), bias=False)
      )
      (conv3): Conv2d(40, 40, kernel_size=(1, 1), stride=(1, 1), bias=False)
      (lrelu): LeakyReLU(negative_slope=0.2, inplace=True)
    )
    (12): SCPA(
      (conv1_a): Conv2d(40, 20, kernel_size=(1, 1), stride=(1, 1), bias=False)
      (conv1_b): Conv2d(40, 20, kernel_size=(1, 1), stride=(1, 1), bias=False)
      (k1): Sequential(
        (0): Conv2d(20, 20, kernel_size=(3, 3), stride=(1, 1), padding=(1, 1), bias=False)
      )
      (PAConv): PAConv(
        (k2): Conv2d(20, 20, kernel_size=(1, 1), stride=(1, 1))
        (sigmoid): Sigmoid()
        (k3): Conv2d(20, 20, kernel_size=(3, 3), stride=(1, 1), padding=(1, 1), bias=False)
        (k4): Conv2d(20, 20, kernel_size=(3, 3), stride=(1, 1), padding=(1, 1), bias=False)
      )
      (conv3): Conv2d(40, 40, kernel_size=(1, 1), stride=(1, 1), bias=False)
      (lrelu): LeakyReLU(negative_slope=0.2, inplace=True)
    )
    (13): SCPA(
      (conv1_a): Conv2d(40, 20, kernel_size=(1, 1), stride=(1, 1), bias=False)
      (conv1_b): Conv2d(40, 20, kernel_size=(1, 1), stride=(1, 1), bias=False)
      (k1): Sequential(
        (0): Conv2d(20, 20, kernel_size=(3, 3), stride=(1, 1), padding=(1, 1), bias=False)
      )
      (PAConv): PAConv(
        (k2): Conv2d(20, 20, kernel_size=(1, 1), stride=(1, 1))
        (sigmoid): Sigmoid()
        (k3): Conv2d(20, 20, kernel_size=(3, 3), stride=(1, 1), padding=(1, 1), bias=False)
        (k4): Conv2d(20, 20, kernel_size=(3, 3), stride=(1, 1), padding=(1, 1), bias=False)
      )
      (conv3): Conv2d(40, 40, kernel_size=(1, 1), stride=(1, 1), bias=False)
      (lrelu): LeakyReLU(negative_slope=0.2, inplace=True)
    )
    (14): SCPA(
      (conv1_a): Conv2d(40, 20, kernel_size=(1, 1), stride=(1, 1), bias=False)
      (conv1_b): Conv2d(40, 20, kernel_size=(1, 1), stride=(1, 1), bias=False)
      (k1): Sequential(
        (0): Conv2d(20, 20, kernel_size=(3, 3), stride=(1, 1), padding=(1, 1), bias=False)
      )
      (PAConv): PAConv(
        (k2): Conv2d(20, 20, kernel_size=(1, 1), stride=(1, 1))
        (sigmoid): Sigmoid()
        (k3): Conv2d(20, 20, kernel_size=(3, 3), stride=(1, 1), padding=(1, 1), bias=False)
        (k4): Conv2d(20, 20, kernel_size=(3, 3), stride=(1, 1), padding=(1, 1), bias=False)
      )
      (conv3): Conv2d(40, 40, kernel_size=(1, 1), stride=(1, 1), bias=False)
      (lrelu): LeakyReLU(negative_slope=0.2, inplace=True)
    )
    (15): SCPA(
      (conv1_a): Conv2d(40, 20, kernel_size=(1, 1), stride=(1, 1), bias=False)
      (conv1_b): Conv2d(40, 20, kernel_size=(1, 1), stride=(1, 1), bias=False)
      (k1): Sequential(
        (0): Conv2d(20, 20, kernel_size=(3, 3), stride=(1, 1), padding=(1, 1), bias=False)
      )
      (PAConv): PAConv(
        (k2): Conv2d(20, 20, kernel_size=(1, 1), stride=(1, 1))
        (sigmoid): Sigmoid()
        (k3): Conv2d(20, 20, kernel_size=(3, 3), stride=(1, 1), padding=(1, 1), bias=False)
        (k4): Conv2d(20, 20, kernel_size=(3, 3), stride=(1, 1), padding=(1, 1), bias=False)
      )
      (conv3): Conv2d(40, 40, kernel_size=(1, 1), stride=(1, 1), bias=False)
      (lrelu): LeakyReLU(negative_slope=0.2, inplace=True)
    )
  )
  (trunk_conv): Conv2d(40, 40, kernel_size=(3, 3), stride=(1, 1), padding=(1, 1))
  (upconv1): Conv2d(40, 24, kernel_size=(3, 3), stride=(1, 1), padding=(1, 1))
  (att1): PA(
    (conv): Conv2d(24, 24, kernel_size=(1, 1), stride=(1, 1))
    (sigmoid): Sigmoid()
  )
  (HRconv1): Conv2d(24, 24, kernel_size=(3, 3), stride=(1, 1), padding=(1, 1))
  (upconv2): Conv2d(24, 24, kernel_size=(3, 3), stride=(1, 1), padding=(1, 1))
  (att2): PA(
    (conv): Conv2d(24, 24, kernel_size=(1, 1), stride=(1, 1))
    (sigmoid): Sigmoid()
  )
  (HRconv2): Conv2d(24, 24, kernel_size=(3, 3), stride=(1, 1), padding=(1, 1))
  (conv_last): Conv2d(24, 3, kernel_size=(3, 3), stride=(1, 1), padding=(1, 1))
  (lrelu): LeakyReLU(negative_slope=0.2, inplace=True)
)
24-03-04 17:46:33.450 - INFO: Loading model for G [/home/xxl/PAN/experiments/PANx4_DIV2K/models/latest_G.pth] ...
24-03-04 17:46:33.487 - INFO: Model [SRModel] is created.
24-03-04 17:46:33.488 - INFO: 
Testing [Set5]...
24-03-04 17:46:37.979 - INFO: baby                 - PSNR: 32.176420 dB; SSIM: 0.867503; PSNR_Y: 33.692796 dB; SSIM_Y: 0.892688.
…
